{"config": {"input_layers": [["input_1", 0, 0]], "output_layers": [["pred_a", 0, 0]], "name": "model_1", "layers": [{"config": {"dtype": "float32", "sparse": false, "name": "input_1", "batch_input_shape": [null, 64, 64, 3]}, "inbound_nodes": [], "class_name": "InputLayer", "name": "input_1"}, {"config": {"input_layers": [["input_2", 0, 0]], "output_layers": [["global_average_pooling2d_1", 0, 0]], "name": "densenet", "layers": [{"config": {"dtype": "float32", "sparse": false, "name": "input_2", "batch_input_shape": [null, 64, 64, 3]}, "inbound_nodes": [], "class_name": "InputLayer", "name": "input_2"}, {"config": {"kernel_regularizer": {"config": {"l2": 9.999999747378752e-05, "l1": 0.0}, "class_name": "L1L2"}, "trainable": true, "bias_constraint": null, "bias_initializer": {"config": {}, "class_name": "Zeros"}, "kernel_constraint": null, "use_bias": false, "activity_regularizer": null, "padding": "same", "filters": 24, "name": "conv2d_1", "kernel_initializer": {"config": {"scale": 2.0, "distribution": "normal", "mode": "fan_in", "seed": null}, "class_name": "VarianceScaling"}, "kernel_size": [3, 3], "bias_regularizer": null, "activation": "linear", "data_format": "channels_last", "dilation_rate": [1, 1], "strides": [1, 1]}, "inbound_nodes": [[["input_2", 0, 0, {}]]], "class_name": "Conv2D", "name": "conv2d_1"}, {"config": {"scale": true, "trainable": true, "beta_constraint": null, "gamma_constraint": null, "beta_regularizer": null, "beta_initializer": {"config": {}, "class_name": "Zeros"}, "moving_mean_initializer": {"config": {}, "class_name": "Zeros"}, "center": true, "gamma_regularizer": null, "moving_variance_initializer": {"config": {}, "class_name": "Ones"}, "name": "batch_normalization_1", "axis": -1, "epsilon": 1.1e-05, "momentum": 0.99, "gamma_initializer": {"config": {}, "class_name": "Ones"}}, "inbound_nodes": [[["conv2d_1", 0, 0, {}]]], "class_name": "BatchNormalization", "name": "batch_normalization_1"}, {"config": {"trainable": true, "name": "activation_1", "activation": "relu"}, "inbound_nodes": [[["batch_normalization_1", 0, 0, {}]]], "class_name": "Activation", "name": "activation_1"}, {"config": {"kernel_regularizer": null, "trainable": true, "bias_constraint": null, "bias_initializer": {"config": {}, "class_name": "Zeros"}, "kernel_constraint": null, "use_bias": false, "activity_regularizer": null, "padding": "same", "filters": 12, "name": "conv2d_2", "kernel_initializer": {"config": {"scale": 2.0, "distribution": "normal", "mode": "fan_in", "seed": null}, "class_name": "VarianceScaling"}, "kernel_size": [3, 3], "bias_regularizer": null, "activation": "linear", "data_format": "channels_last", "dilation_rate": [1, 1], "strides": [1, 1]}, "inbound_nodes": [[["activation_1", 0, 0, {}]]], "class_name": "Conv2D", "name": "conv2d_2"}, {"config": {"axis": -1, "trainable": true, "name": "concatenate_1"}, "inbound_nodes": [[["conv2d_1", 0, 0, {}], ["conv2d_2", 0, 0, {}]]], "class_name": "Concatenate", "name": "concatenate_1"}, {"config": {"scale": true, "trainable": true, "beta_constraint": null, "gamma_constraint": null, "beta_regularizer": null, "beta_initializer": {"config": {}, "class_name": "Zeros"}, "moving_mean_initializer": {"config": {}, "class_name": "Zeros"}, "center": true, "gamma_regularizer": null, "moving_variance_initializer": {"config": {}, "class_name": "Ones"}, "name": "batch_normalization_2", "axis": -1, "epsilon": 1.1e-05, "momentum": 0.99, "gamma_initializer": {"config": {}, "class_name": "Ones"}}, "inbound_nodes": [[["concatenate_1", 0, 0, {}]]], "class_name": "BatchNormalization", "name": "batch_normalization_2"}, {"config": {"trainable": true, "name": "activation_2", "activation": "relu"}, "inbound_nodes": [[["batch_normalization_2", 0, 0, {}]]], "class_name": "Activation", "name": "activation_2"}, {"config": {"kernel_regularizer": null, "trainable": true, "bias_constraint": null, "bias_initializer": {"config": {}, "class_name": "Zeros"}, "kernel_constraint": null, "use_bias": false, "activity_regularizer": null, "padding": "same", "filters": 12, "name": "conv2d_3", "kernel_initializer": {"config": {"scale": 2.0, "distribution": "normal", "mode": "fan_in", "seed": null}, "class_name": "VarianceScaling"}, "kernel_size": [3, 3], "bias_regularizer": null, "activation": "linear", "data_format": "channels_last", "dilation_rate": [1, 1], "strides": [1, 1]}, "inbound_nodes": [[["activation_2", 0, 0, {}]]], "class_name": "Conv2D", "name": "conv2d_3"}, {"config": {"axis": -1, "trainable": true, "name": "concatenate_2"}, "inbound_nodes": [[["concatenate_1", 0, 0, {}], ["conv2d_3", 0, 0, {}]]], "class_name": "Concatenate", "name": "concatenate_2"}, {"config": {"scale": true, "trainable": true, "beta_constraint": null, "gamma_constraint": null, "beta_regularizer": null, "beta_initializer": {"config": {}, "class_name": "Zeros"}, "moving_mean_initializer": {"config": {}, "class_name": "Zeros"}, "center": true, "gamma_regularizer": null, "moving_variance_initializer": {"config": {}, "class_name": "Ones"}, "name": "batch_normalization_3", "axis": -1, "epsilon": 1.1e-05, "momentum": 0.99, "gamma_initializer": {"config": {}, "class_name": "Ones"}}, "inbound_nodes": [[["concatenate_2", 0, 0, {}]]], "class_name": "BatchNormalization", "name": "batch_normalization_3"}, {"config": {"trainable": true, "name": "activation_3", "activation": "relu"}, "inbound_nodes": [[["batch_normalization_3", 0, 0, {}]]], "class_name": "Activation", "name": "activation_3"}, {"config": {"kernel_regularizer": null, "trainable": true, "bias_constraint": null, "bias_initializer": {"config": {}, "class_name": "Zeros"}, "kernel_constraint": null, "use_bias": false, "activity_regularizer": null, "padding": "same", "filters": 12, "name": "conv2d_4", "kernel_initializer": {"config": {"scale": 2.0, "distribution": "normal", "mode": "fan_in", "seed": null}, "class_name": "VarianceScaling"}, "kernel_size": [3, 3], "bias_regularizer": null, "activation": "linear", "data_format": "channels_last", "dilation_rate": [1, 1], "strides": [1, 1]}, "inbound_nodes": [[["activation_3", 0, 0, {}]]], "class_name": "Conv2D", "name": "conv2d_4"}, {"config": {"axis": -1, "trainable": true, "name": "concatenate_3"}, "inbound_nodes": [[["concatenate_2", 0, 0, {}], ["conv2d_4", 0, 0, {}]]], "class_name": "Concatenate", "name": "concatenate_3"}, {"config": {"scale": true, "trainable": true, "beta_constraint": null, "gamma_constraint": null, "beta_regularizer": null, "beta_initializer": {"config": {}, "class_name": "Zeros"}, "moving_mean_initializer": {"config": {}, "class_name": "Zeros"}, "center": true, "gamma_regularizer": null, "moving_variance_initializer": {"config": {}, "class_name": "Ones"}, "name": "batch_normalization_4", "axis": -1, "epsilon": 1.1e-05, "momentum": 0.99, "gamma_initializer": {"config": {}, "class_name": "Ones"}}, "inbound_nodes": [[["concatenate_3", 0, 0, {}]]], "class_name": "BatchNormalization", "name": "batch_normalization_4"}, {"config": {"trainable": true, "name": "activation_4", "activation": "relu"}, "inbound_nodes": [[["batch_normalization_4", 0, 0, {}]]], "class_name": "Activation", "name": "activation_4"}, {"config": {"kernel_regularizer": null, "trainable": true, "bias_constraint": null, "bias_initializer": {"config": {}, "class_name": "Zeros"}, "kernel_constraint": null, "use_bias": false, "activity_regularizer": null, "padding": "same", "filters": 12, "name": "conv2d_5", "kernel_initializer": {"config": {"scale": 2.0, "distribution": "normal", "mode": "fan_in", "seed": null}, "class_name": "VarianceScaling"}, "kernel_size": [3, 3], "bias_regularizer": null, "activation": "linear", "data_format": "channels_last", "dilation_rate": [1, 1], "strides": [1, 1]}, "inbound_nodes": [[["activation_4", 0, 0, {}]]], "class_name": "Conv2D", "name": "conv2d_5"}, {"config": {"axis": -1, "trainable": true, "name": "concatenate_4"}, "inbound_nodes": [[["concatenate_3", 0, 0, {}], ["conv2d_5", 0, 0, {}]]], "class_name": "Concatenate", "name": "concatenate_4"}, {"config": {"scale": true, "trainable": true, "beta_constraint": null, "gamma_constraint": null, "beta_regularizer": null, "beta_initializer": {"config": {}, "class_name": "Zeros"}, "moving_mean_initializer": {"config": {}, "class_name": "Zeros"}, "center": true, "gamma_regularizer": null, "moving_variance_initializer": {"config": {}, "class_name": "Ones"}, "name": "batch_normalization_5", "axis": -1, "epsilon": 1.1e-05, "momentum": 0.99, "gamma_initializer": {"config": {}, "class_name": "Ones"}}, "inbound_nodes": [[["concatenate_4", 0, 0, {}]]], "class_name": "BatchNormalization", "name": "batch_normalization_5"}, {"config": {"trainable": true, "name": "activation_5", "activation": "relu"}, "inbound_nodes": [[["batch_normalization_5", 0, 0, {}]]], "class_name": "Activation", "name": "activation_5"}, {"config": {"kernel_regularizer": null, "trainable": true, "bias_constraint": null, "bias_initializer": {"config": {}, "class_name": "Zeros"}, "kernel_constraint": null, "use_bias": false, "activity_regularizer": null, "padding": "same", "filters": 12, "name": "conv2d_6", "kernel_initializer": {"config": {"scale": 2.0, "distribution": "normal", "mode": "fan_in", "seed": null}, "class_name": "VarianceScaling"}, "kernel_size": [3, 3], "bias_regularizer": null, "activation": "linear", "data_format": "channels_last", "dilation_rate": [1, 1], "strides": [1, 1]}, "inbound_nodes": [[["activation_5", 0, 0, {}]]], "class_name": "Conv2D", "name": "conv2d_6"}, {"config": {"axis": -1, "trainable": true, "name": "concatenate_5"}, "inbound_nodes": [[["concatenate_4", 0, 0, {}], ["conv2d_6", 0, 0, {}]]], "class_name": "Concatenate", "name": "concatenate_5"}, {"config": {"scale": true, "trainable": true, "beta_constraint": null, "gamma_constraint": null, "beta_regularizer": null, "beta_initializer": {"config": {}, "class_name": "Zeros"}, "moving_mean_initializer": {"config": {}, "class_name": "Zeros"}, "center": true, "gamma_regularizer": null, "moving_variance_initializer": {"config": {}, "class_name": "Ones"}, "name": "batch_normalization_6", "axis": -1, "epsilon": 1.1e-05, "momentum": 0.99, "gamma_initializer": {"config": {}, "class_name": "Ones"}}, "inbound_nodes": [[["concatenate_5", 0, 0, {}]]], "class_name": "BatchNormalization", "name": "batch_normalization_6"}, {"config": {"trainable": true, "name": "activation_6", "activation": "relu"}, "inbound_nodes": [[["batch_normalization_6", 0, 0, {}]]], "class_name": "Activation", "name": "activation_6"}, {"config": {"kernel_regularizer": {"config": {"l2": 9.999999747378752e-05, "l1": 0.0}, "class_name": "L1L2"}, "trainable": true, "bias_constraint": null, "bias_initializer": {"config": {}, "class_name": "Zeros"}, "kernel_constraint": null, "use_bias": false, "activity_regularizer": null, "padding": "same", "filters": 84, "name": "conv2d_7", "kernel_initializer": {"config": {"scale": 2.0, "distribution": "normal", "mode": "fan_in", "seed": null}, "class_name": "VarianceScaling"}, "kernel_size": [1, 1], "bias_regularizer": null, "activation": "linear", "data_format": "channels_last", "dilation_rate": [1, 1], "strides": [1, 1]}, "inbound_nodes": [[["activation_6", 0, 0, {}]]], "class_name": "Conv2D", "name": "conv2d_7"}, {"config": {"trainable": true, "strides": [2, 2], "name": "average_pooling2d_1", "pool_size": [2, 2], "data_format": "channels_last", "padding": "valid"}, "inbound_nodes": [[["conv2d_7", 0, 0, {}]]], "class_name": "AveragePooling2D", "name": "average_pooling2d_1"}, {"config": {"scale": true, "trainable": true, "beta_constraint": null, "gamma_constraint": null, "beta_regularizer": null, "beta_initializer": {"config": {}, "class_name": "Zeros"}, "moving_mean_initializer": {"config": {}, "class_name": "Zeros"}, "center": true, "gamma_regularizer": null, "moving_variance_initializer": {"config": {}, "class_name": "Ones"}, "name": "batch_normalization_7", "axis": -1, "epsilon": 1.1e-05, "momentum": 0.99, "gamma_initializer": {"config": {}, "class_name": "Ones"}}, "inbound_nodes": [[["average_pooling2d_1", 0, 0, {}]]], "class_name": "BatchNormalization", "name": "batch_normalization_7"}, {"config": {"trainable": true, "name": "activation_7", "activation": "relu"}, "inbound_nodes": [[["batch_normalization_7", 0, 0, {}]]], "class_name": "Activation", "name": "activation_7"}, {"config": {"kernel_regularizer": null, "trainable": true, "bias_constraint": null, "bias_initializer": {"config": {}, "class_name": "Zeros"}, "kernel_constraint": null, "use_bias": false, "activity_regularizer": null, "padding": "same", "filters": 12, "name": "conv2d_8", "kernel_initializer": {"config": {"scale": 2.0, "distribution": "normal", "mode": "fan_in", "seed": null}, "class_name": "VarianceScaling"}, "kernel_size": [3, 3], "bias_regularizer": null, "activation": "linear", "data_format": "channels_last", "dilation_rate": [1, 1], "strides": [1, 1]}, "inbound_nodes": [[["activation_7", 0, 0, {}]]], "class_name": "Conv2D", "name": "conv2d_8"}, {"config": {"axis": -1, "trainable": true, "name": "concatenate_6"}, "inbound_nodes": [[["average_pooling2d_1", 0, 0, {}], ["conv2d_8", 0, 0, {}]]], "class_name": "Concatenate", "name": "concatenate_6"}, {"config": {"scale": true, "trainable": true, "beta_constraint": null, "gamma_constraint": null, "beta_regularizer": null, "beta_initializer": {"config": {}, "class_name": "Zeros"}, "moving_mean_initializer": {"config": {}, "class_name": "Zeros"}, "center": true, "gamma_regularizer": null, "moving_variance_initializer": {"config": {}, "class_name": "Ones"}, "name": "batch_normalization_8", "axis": -1, "epsilon": 1.1e-05, "momentum": 0.99, "gamma_initializer": {"config": {}, "class_name": "Ones"}}, "inbound_nodes": [[["concatenate_6", 0, 0, {}]]], "class_name": "BatchNormalization", "name": "batch_normalization_8"}, {"config": {"trainable": true, "name": "activation_8", "activation": "relu"}, "inbound_nodes": [[["batch_normalization_8", 0, 0, {}]]], "class_name": "Activation", "name": "activation_8"}, {"config": {"kernel_regularizer": null, "trainable": true, "bias_constraint": null, "bias_initializer": {"config": {}, "class_name": "Zeros"}, "kernel_constraint": null, "use_bias": false, "activity_regularizer": null, "padding": "same", "filters": 12, "name": "conv2d_9", "kernel_initializer": {"config": {"scale": 2.0, "distribution": "normal", "mode": "fan_in", "seed": null}, "class_name": "VarianceScaling"}, "kernel_size": [3, 3], "bias_regularizer": null, "activation": "linear", "data_format": "channels_last", "dilation_rate": [1, 1], "strides": [1, 1]}, "inbound_nodes": [[["activation_8", 0, 0, {}]]], "class_name": "Conv2D", "name": "conv2d_9"}, {"config": {"axis": -1, "trainable": true, "name": "concatenate_7"}, "inbound_nodes": [[["concatenate_6", 0, 0, {}], ["conv2d_9", 0, 0, {}]]], "class_name": "Concatenate", "name": "concatenate_7"}, {"config": {"scale": true, "trainable": true, "beta_constraint": null, "gamma_constraint": null, "beta_regularizer": null, "beta_initializer": {"config": {}, "class_name": "Zeros"}, "moving_mean_initializer": {"config": {}, "class_name": "Zeros"}, "center": true, "gamma_regularizer": null, "moving_variance_initializer": {"config": {}, "class_name": "Ones"}, "name": "batch_normalization_9", "axis": -1, "epsilon": 1.1e-05, "momentum": 0.99, "gamma_initializer": {"config": {}, "class_name": "Ones"}}, "inbound_nodes": [[["concatenate_7", 0, 0, {}]]], "class_name": "BatchNormalization", "name": "batch_normalization_9"}, {"config": {"trainable": true, "name": "activation_9", "activation": "relu"}, "inbound_nodes": [[["batch_normalization_9", 0, 0, {}]]], "class_name": "Activation", "name": "activation_9"}, {"config": {"kernel_regularizer": null, "trainable": true, "bias_constraint": null, "bias_initializer": {"config": {}, "class_name": "Zeros"}, "kernel_constraint": null, "use_bias": false, "activity_regularizer": null, "padding": "same", "filters": 12, "name": "conv2d_10", "kernel_initializer": {"config": {"scale": 2.0, "distribution": "normal", "mode": "fan_in", "seed": null}, "class_name": "VarianceScaling"}, "kernel_size": [3, 3], "bias_regularizer": null, "activation": "linear", "data_format": "channels_last", "dilation_rate": [1, 1], "strides": [1, 1]}, "inbound_nodes": [[["activation_9", 0, 0, {}]]], "class_name": "Conv2D", "name": "conv2d_10"}, {"config": {"axis": -1, "trainable": true, "name": "concatenate_8"}, "inbound_nodes": [[["concatenate_7", 0, 0, {}], ["conv2d_10", 0, 0, {}]]], "class_name": "Concatenate", "name": "concatenate_8"}, {"config": {"scale": true, "trainable": true, "beta_constraint": null, "gamma_constraint": null, "beta_regularizer": null, "beta_initializer": {"config": {}, "class_name": "Zeros"}, "moving_mean_initializer": {"config": {}, "class_name": "Zeros"}, "center": true, "gamma_regularizer": null, "moving_variance_initializer": {"config": {}, "class_name": "Ones"}, "name": "batch_normalization_10", "axis": -1, "epsilon": 1.1e-05, "momentum": 0.99, "gamma_initializer": {"config": {}, "class_name": "Ones"}}, "inbound_nodes": [[["concatenate_8", 0, 0, {}]]], "class_name": "BatchNormalization", "name": "batch_normalization_10"}, {"config": {"trainable": true, "name": "activation_10", "activation": "relu"}, "inbound_nodes": [[["batch_normalization_10", 0, 0, {}]]], "class_name": "Activation", "name": "activation_10"}, {"config": {"kernel_regularizer": null, "trainable": true, "bias_constraint": null, "bias_initializer": {"config": {}, "class_name": "Zeros"}, "kernel_constraint": null, "use_bias": false, "activity_regularizer": null, "padding": "same", "filters": 12, "name": "conv2d_11", "kernel_initializer": {"config": {"scale": 2.0, "distribution": "normal", "mode": "fan_in", "seed": null}, "class_name": "VarianceScaling"}, "kernel_size": [3, 3], "bias_regularizer": null, "activation": "linear", "data_format": "channels_last", "dilation_rate": [1, 1], "strides": [1, 1]}, "inbound_nodes": [[["activation_10", 0, 0, {}]]], "class_name": "Conv2D", "name": "conv2d_11"}, {"config": {"axis": -1, "trainable": true, "name": "concatenate_9"}, "inbound_nodes": [[["concatenate_8", 0, 0, {}], ["conv2d_11", 0, 0, {}]]], "class_name": "Concatenate", "name": "concatenate_9"}, {"config": {"scale": true, "trainable": true, "beta_constraint": null, "gamma_constraint": null, "beta_regularizer": null, "beta_initializer": {"config": {}, "class_name": "Zeros"}, "moving_mean_initializer": {"config": {}, "class_name": "Zeros"}, "center": true, "gamma_regularizer": null, "moving_variance_initializer": {"config": {}, "class_name": "Ones"}, "name": "batch_normalization_11", "axis": -1, "epsilon": 1.1e-05, "momentum": 0.99, "gamma_initializer": {"config": {}, "class_name": "Ones"}}, "inbound_nodes": [[["concatenate_9", 0, 0, {}]]], "class_name": "BatchNormalization", "name": "batch_normalization_11"}, {"config": {"trainable": true, "name": "activation_11", "activation": "relu"}, "inbound_nodes": [[["batch_normalization_11", 0, 0, {}]]], "class_name": "Activation", "name": "activation_11"}, {"config": {"kernel_regularizer": null, "trainable": true, "bias_constraint": null, "bias_initializer": {"config": {}, "class_name": "Zeros"}, "kernel_constraint": null, "use_bias": false, "activity_regularizer": null, "padding": "same", "filters": 12, "name": "conv2d_12", "kernel_initializer": {"config": {"scale": 2.0, "distribution": "normal", "mode": "fan_in", "seed": null}, "class_name": "VarianceScaling"}, "kernel_size": [3, 3], "bias_regularizer": null, "activation": "linear", "data_format": "channels_last", "dilation_rate": [1, 1], "strides": [1, 1]}, "inbound_nodes": [[["activation_11", 0, 0, {}]]], "class_name": "Conv2D", "name": "conv2d_12"}, {"config": {"axis": -1, "trainable": true, "name": "concatenate_10"}, "inbound_nodes": [[["concatenate_9", 0, 0, {}], ["conv2d_12", 0, 0, {}]]], "class_name": "Concatenate", "name": "concatenate_10"}, {"config": {"scale": true, "trainable": true, "beta_constraint": null, "gamma_constraint": null, "beta_regularizer": null, "beta_initializer": {"config": {}, "class_name": "Zeros"}, "moving_mean_initializer": {"config": {}, "class_name": "Zeros"}, "center": true, "gamma_regularizer": null, "moving_variance_initializer": {"config": {}, "class_name": "Ones"}, "name": "batch_normalization_12", "axis": -1, "epsilon": 1.1e-05, "momentum": 0.99, "gamma_initializer": {"config": {}, "class_name": "Ones"}}, "inbound_nodes": [[["concatenate_10", 0, 0, {}]]], "class_name": "BatchNormalization", "name": "batch_normalization_12"}, {"config": {"trainable": true, "name": "activation_12", "activation": "relu"}, "inbound_nodes": [[["batch_normalization_12", 0, 0, {}]]], "class_name": "Activation", "name": "activation_12"}, {"config": {"kernel_regularizer": {"config": {"l2": 9.999999747378752e-05, "l1": 0.0}, "class_name": "L1L2"}, "trainable": true, "bias_constraint": null, "bias_initializer": {"config": {}, "class_name": "Zeros"}, "kernel_constraint": null, "use_bias": false, "activity_regularizer": null, "padding": "same", "filters": 144, "name": "conv2d_13", "kernel_initializer": {"config": {"scale": 2.0, "distribution": "normal", "mode": "fan_in", "seed": null}, "class_name": "VarianceScaling"}, "kernel_size": [1, 1], "bias_regularizer": null, "activation": "linear", "data_format": "channels_last", "dilation_rate": [1, 1], "strides": [1, 1]}, "inbound_nodes": [[["activation_12", 0, 0, {}]]], "class_name": "Conv2D", "name": "conv2d_13"}, {"config": {"trainable": true, "strides": [2, 2], "name": "average_pooling2d_2", "pool_size": [2, 2], "data_format": "channels_last", "padding": "valid"}, "inbound_nodes": [[["conv2d_13", 0, 0, {}]]], "class_name": "AveragePooling2D", "name": "average_pooling2d_2"}, {"config": {"scale": true, "trainable": true, "beta_constraint": null, "gamma_constraint": null, "beta_regularizer": null, "beta_initializer": {"config": {}, "class_name": "Zeros"}, "moving_mean_initializer": {"config": {}, "class_name": "Zeros"}, "center": true, "gamma_regularizer": null, "moving_variance_initializer": {"config": {}, "class_name": "Ones"}, "name": "batch_normalization_13", "axis": -1, "epsilon": 1.1e-05, "momentum": 0.99, "gamma_initializer": {"config": {}, "class_name": "Ones"}}, "inbound_nodes": [[["average_pooling2d_2", 0, 0, {}]]], "class_name": "BatchNormalization", "name": "batch_normalization_13"}, {"config": {"trainable": true, "name": "activation_13", "activation": "relu"}, "inbound_nodes": [[["batch_normalization_13", 0, 0, {}]]], "class_name": "Activation", "name": "activation_13"}, {"config": {"kernel_regularizer": null, "trainable": true, "bias_constraint": null, "bias_initializer": {"config": {}, "class_name": "Zeros"}, "kernel_constraint": null, "use_bias": false, "activity_regularizer": null, "padding": "same", "filters": 12, "name": "conv2d_14", "kernel_initializer": {"config": {"scale": 2.0, "distribution": "normal", "mode": "fan_in", "seed": null}, "class_name": "VarianceScaling"}, "kernel_size": [3, 3], "bias_regularizer": null, "activation": "linear", "data_format": "channels_last", "dilation_rate": [1, 1], "strides": [1, 1]}, "inbound_nodes": [[["activation_13", 0, 0, {}]]], "class_name": "Conv2D", "name": "conv2d_14"}, {"config": {"axis": -1, "trainable": true, "name": "concatenate_11"}, "inbound_nodes": [[["average_pooling2d_2", 0, 0, {}], ["conv2d_14", 0, 0, {}]]], "class_name": "Concatenate", "name": "concatenate_11"}, {"config": {"scale": true, "trainable": true, "beta_constraint": null, "gamma_constraint": null, "beta_regularizer": null, "beta_initializer": {"config": {}, "class_name": "Zeros"}, "moving_mean_initializer": {"config": {}, "class_name": "Zeros"}, "center": true, "gamma_regularizer": null, "moving_variance_initializer": {"config": {}, "class_name": "Ones"}, "name": "batch_normalization_14", "axis": -1, "epsilon": 1.1e-05, "momentum": 0.99, "gamma_initializer": {"config": {}, "class_name": "Ones"}}, "inbound_nodes": [[["concatenate_11", 0, 0, {}]]], "class_name": "BatchNormalization", "name": "batch_normalization_14"}, {"config": {"trainable": true, "name": "activation_14", "activation": "relu"}, "inbound_nodes": [[["batch_normalization_14", 0, 0, {}]]], "class_name": "Activation", "name": "activation_14"}, {"config": {"kernel_regularizer": null, "trainable": true, "bias_constraint": null, "bias_initializer": {"config": {}, "class_name": "Zeros"}, "kernel_constraint": null, "use_bias": false, "activity_regularizer": null, "padding": "same", "filters": 12, "name": "conv2d_15", "kernel_initializer": {"config": {"scale": 2.0, "distribution": "normal", "mode": "fan_in", "seed": null}, "class_name": "VarianceScaling"}, "kernel_size": [3, 3], "bias_regularizer": null, "activation": "linear", "data_format": "channels_last", "dilation_rate": [1, 1], "strides": [1, 1]}, "inbound_nodes": [[["activation_14", 0, 0, {}]]], "class_name": "Conv2D", "name": "conv2d_15"}, {"config": {"axis": -1, "trainable": true, "name": "concatenate_12"}, "inbound_nodes": [[["concatenate_11", 0, 0, {}], ["conv2d_15", 0, 0, {}]]], "class_name": "Concatenate", "name": "concatenate_12"}, {"config": {"scale": true, "trainable": true, "beta_constraint": null, "gamma_constraint": null, "beta_regularizer": null, "beta_initializer": {"config": {}, "class_name": "Zeros"}, "moving_mean_initializer": {"config": {}, "class_name": "Zeros"}, "center": true, "gamma_regularizer": null, "moving_variance_initializer": {"config": {}, "class_name": "Ones"}, "name": "batch_normalization_15", "axis": -1, "epsilon": 1.1e-05, "momentum": 0.99, "gamma_initializer": {"config": {}, "class_name": "Ones"}}, "inbound_nodes": [[["concatenate_12", 0, 0, {}]]], "class_name": "BatchNormalization", "name": "batch_normalization_15"}, {"config": {"trainable": true, "name": "activation_15", "activation": "relu"}, "inbound_nodes": [[["batch_normalization_15", 0, 0, {}]]], "class_name": "Activation", "name": "activation_15"}, {"config": {"kernel_regularizer": null, "trainable": true, "bias_constraint": null, "bias_initializer": {"config": {}, "class_name": "Zeros"}, "kernel_constraint": null, "use_bias": false, "activity_regularizer": null, "padding": "same", "filters": 12, "name": "conv2d_16", "kernel_initializer": {"config": {"scale": 2.0, "distribution": "normal", "mode": "fan_in", "seed": null}, "class_name": "VarianceScaling"}, "kernel_size": [3, 3], "bias_regularizer": null, "activation": "linear", "data_format": "channels_last", "dilation_rate": [1, 1], "strides": [1, 1]}, "inbound_nodes": [[["activation_15", 0, 0, {}]]], "class_name": "Conv2D", "name": "conv2d_16"}, {"config": {"axis": -1, "trainable": true, "name": "concatenate_13"}, "inbound_nodes": [[["concatenate_12", 0, 0, {}], ["conv2d_16", 0, 0, {}]]], "class_name": "Concatenate", "name": "concatenate_13"}, {"config": {"scale": true, "trainable": true, "beta_constraint": null, "gamma_constraint": null, "beta_regularizer": null, "beta_initializer": {"config": {}, "class_name": "Zeros"}, "moving_mean_initializer": {"config": {}, "class_name": "Zeros"}, "center": true, "gamma_regularizer": null, "moving_variance_initializer": {"config": {}, "class_name": "Ones"}, "name": "batch_normalization_16", "axis": -1, "epsilon": 1.1e-05, "momentum": 0.99, "gamma_initializer": {"config": {}, "class_name": "Ones"}}, "inbound_nodes": [[["concatenate_13", 0, 0, {}]]], "class_name": "BatchNormalization", "name": "batch_normalization_16"}, {"config": {"trainable": true, "name": "activation_16", "activation": "relu"}, "inbound_nodes": [[["batch_normalization_16", 0, 0, {}]]], "class_name": "Activation", "name": "activation_16"}, {"config": {"kernel_regularizer": null, "trainable": true, "bias_constraint": null, "bias_initializer": {"config": {}, "class_name": "Zeros"}, "kernel_constraint": null, "use_bias": false, "activity_regularizer": null, "padding": "same", "filters": 12, "name": "conv2d_17", "kernel_initializer": {"config": {"scale": 2.0, "distribution": "normal", "mode": "fan_in", "seed": null}, "class_name": "VarianceScaling"}, "kernel_size": [3, 3], "bias_regularizer": null, "activation": "linear", "data_format": "channels_last", "dilation_rate": [1, 1], "strides": [1, 1]}, "inbound_nodes": [[["activation_16", 0, 0, {}]]], "class_name": "Conv2D", "name": "conv2d_17"}, {"config": {"axis": -1, "trainable": true, "name": "concatenate_14"}, "inbound_nodes": [[["concatenate_13", 0, 0, {}], ["conv2d_17", 0, 0, {}]]], "class_name": "Concatenate", "name": "concatenate_14"}, {"config": {"scale": true, "trainable": true, "beta_constraint": null, "gamma_constraint": null, "beta_regularizer": null, "beta_initializer": {"config": {}, "class_name": "Zeros"}, "moving_mean_initializer": {"config": {}, "class_name": "Zeros"}, "center": true, "gamma_regularizer": null, "moving_variance_initializer": {"config": {}, "class_name": "Ones"}, "name": "batch_normalization_17", "axis": -1, "epsilon": 1.1e-05, "momentum": 0.99, "gamma_initializer": {"config": {}, "class_name": "Ones"}}, "inbound_nodes": [[["concatenate_14", 0, 0, {}]]], "class_name": "BatchNormalization", "name": "batch_normalization_17"}, {"config": {"trainable": true, "name": "activation_17", "activation": "relu"}, "inbound_nodes": [[["batch_normalization_17", 0, 0, {}]]], "class_name": "Activation", "name": "activation_17"}, {"config": {"kernel_regularizer": null, "trainable": true, "bias_constraint": null, "bias_initializer": {"config": {}, "class_name": "Zeros"}, "kernel_constraint": null, "use_bias": false, "activity_regularizer": null, "padding": "same", "filters": 12, "name": "conv2d_18", "kernel_initializer": {"config": {"scale": 2.0, "distribution": "normal", "mode": "fan_in", "seed": null}, "class_name": "VarianceScaling"}, "kernel_size": [3, 3], "bias_regularizer": null, "activation": "linear", "data_format": "channels_last", "dilation_rate": [1, 1], "strides": [1, 1]}, "inbound_nodes": [[["activation_17", 0, 0, {}]]], "class_name": "Conv2D", "name": "conv2d_18"}, {"config": {"axis": -1, "trainable": true, "name": "concatenate_15"}, "inbound_nodes": [[["concatenate_14", 0, 0, {}], ["conv2d_18", 0, 0, {}]]], "class_name": "Concatenate", "name": "concatenate_15"}, {"config": {"scale": true, "trainable": true, "beta_constraint": null, "gamma_constraint": null, "beta_regularizer": null, "beta_initializer": {"config": {}, "class_name": "Zeros"}, "moving_mean_initializer": {"config": {}, "class_name": "Zeros"}, "center": true, "gamma_regularizer": null, "moving_variance_initializer": {"config": {}, "class_name": "Ones"}, "name": "batch_normalization_18", "axis": -1, "epsilon": 1.1e-05, "momentum": 0.99, "gamma_initializer": {"config": {}, "class_name": "Ones"}}, "inbound_nodes": [[["concatenate_15", 0, 0, {}]]], "class_name": "BatchNormalization", "name": "batch_normalization_18"}, {"config": {"trainable": true, "name": "activation_18", "activation": "relu"}, "inbound_nodes": [[["batch_normalization_18", 0, 0, {}]]], "class_name": "Activation", "name": "activation_18"}, {"config": {"trainable": true, "data_format": "channels_last", "name": "global_average_pooling2d_1"}, "inbound_nodes": [[["activation_18", 0, 0, {}]]], "class_name": "GlobalAveragePooling2D", "name": "global_average_pooling2d_1"}]}, "inbound_nodes": [[["input_1", 0, 0, {}]]], "class_name": "Model", "name": "densenet"}, {"config": {"kernel_regularizer": null, "trainable": true, "name": "dense_1", "bias_initializer": {"config": {}, "class_name": "Zeros"}, "kernel_constraint": null, "use_bias": true, "bias_constraint": null, "activity_regularizer": null, "units": 128, "kernel_initializer": {"config": {"scale": 1.0, "distribution": "uniform", "mode": "fan_avg", "seed": null}, "class_name": "VarianceScaling"}, "bias_regularizer": null, "activation": "relu"}, "inbound_nodes": [[["densenet", 1, 0, {}]]], "class_name": "Dense", "name": "dense_1"}, {"config": {"trainable": true, "rate": 0.2, "name": "dropout_1"}, "inbound_nodes": [[["dense_1", 0, 0, {}]]], "class_name": "Dropout", "name": "dropout_1"}, {"config": {"kernel_regularizer": null, "trainable": true, "name": "feat_a", "bias_initializer": {"config": {}, "class_name": "Zeros"}, "kernel_constraint": null, "use_bias": true, "bias_constraint": null, "activity_regularizer": null, "units": 32, "kernel_initializer": {"config": {"scale": 1.0, "distribution": "uniform", "mode": "fan_avg", "seed": null}, "class_name": "VarianceScaling"}, "bias_regularizer": null, "activation": "relu"}, "inbound_nodes": [[["dropout_1", 0, 0, {}]]], "class_name": "Dense", "name": "feat_a"}, {"config": {"kernel_regularizer": null, "trainable": true, "name": "pred_a", "bias_initializer": {"config": {}, "class_name": "Zeros"}, "kernel_constraint": null, "use_bias": true, "bias_constraint": null, "activity_regularizer": null, "units": 1, "kernel_initializer": {"config": {"scale": 1.0, "distribution": "uniform", "mode": "fan_avg", "seed": null}, "class_name": "VarianceScaling"}, "bias_regularizer": null, "activation": "linear"}, "inbound_nodes": [[["feat_a", 0, 0, {}]]], "class_name": "Dense", "name": "pred_a"}]}, "backend": "tensorflow", "keras_version": "2.0.6", "class_name": "Model"}