{"config": {"input_layers": [["input_1", 0, 0]], "output_layers": [["pred_a", 0, 0]], "name": "model_1", "layers": [{"config": {"dtype": "float32", "batch_input_shape": [null, 64, 64, 3], "name": "input_1", "sparse": false}, "class_name": "InputLayer", "name": "input_1", "inbound_nodes": []}, {"config": {"input_layers": [["input_2", 0, 0]], "output_layers": [["conv_pw_13_relu", 0, 0]], "name": "mobilenet_0.50_64", "layers": [{"config": {"name": "input_2", "batch_input_shape": [null, 64, 64, 3], "dtype": "float32", "sparse": false}, "class_name": "InputLayer", "name": "input_2", "inbound_nodes": []}, {"config": {"name": "conv1", "use_bias": false, "kernel_size": [3, 3], "activation": "linear", "bias_constraint": null, "kernel_initializer": {"config": {"mode": "fan_avg", "seed": null, "scale": 1.0, "distribution": "uniform"}, "class_name": "VarianceScaling"}, "strides": [2, 2], "bias_initializer": {"config": {}, "class_name": "Zeros"}, "data_format": "channels_last", "padding": "same", "kernel_regularizer": null, "bias_regularizer": null, "kernel_constraint": null, "activity_regularizer": null, "dilation_rate": [1, 1], "trainable": true, "filters": 16}, "class_name": "Conv2D", "name": "conv1", "inbound_nodes": [[["input_2", 0, 0, {}]]]}, {"config": {"name": "conv1_bn", "axis": -1, "moving_mean_initializer": {"config": {}, "class_name": "Zeros"}, "epsilon": 0.001, "gamma_regularizer": null, "beta_regularizer": null, "scale": true, "gamma_initializer": {"config": {}, "class_name": "Ones"}, "beta_initializer": {"config": {}, "class_name": "Zeros"}, "gamma_constraint": null, "center": true, "moving_variance_initializer": {"config": {}, "class_name": "Ones"}, "momentum": 0.99, "trainable": true, "beta_constraint": null}, "class_name": "BatchNormalization", "name": "conv1_bn", "inbound_nodes": [[["conv1", 0, 0, {}]]]}, {"config": {"activation": "relu6", "name": "conv1_relu", "trainable": true}, "class_name": "Activation", "name": "conv1_relu", "inbound_nodes": [[["conv1_bn", 0, 0, {}]]]}, {"config": {"depthwise_regularizer": null, "name": "conv_dw_1", "use_bias": false, "kernel_size": [3, 3], "activation": "linear", "bias_constraint": null, "strides": [1, 1], "bias_initializer": {"config": {}, "class_name": "Zeros"}, "depth_multiplier": 1, "data_format": "channels_last", "padding": "same", "bias_regularizer": null, "depthwise_constraint": null, "activity_regularizer": null, "dilation_rate": [1, 1], "trainable": true, "depthwise_initializer": {"config": {"mode": "fan_avg", "seed": null, "scale": 1.0, "distribution": "uniform"}, "class_name": "VarianceScaling"}}, "class_name": "DepthwiseConv2D", "name": "conv_dw_1", "inbound_nodes": [[["conv1_relu", 0, 0, {}]]]}, {"config": {"name": "conv_dw_1_bn", "axis": -1, "moving_mean_initializer": {"config": {}, "class_name": "Zeros"}, "epsilon": 0.001, "gamma_regularizer": null, "beta_regularizer": null, "scale": true, "gamma_initializer": {"config": {}, "class_name": "Ones"}, "beta_initializer": {"config": {}, "class_name": "Zeros"}, "gamma_constraint": null, "center": true, "moving_variance_initializer": {"config": {}, "class_name": "Ones"}, "momentum": 0.99, "trainable": true, "beta_constraint": null}, "class_name": "BatchNormalization", "name": "conv_dw_1_bn", "inbound_nodes": [[["conv_dw_1", 0, 0, {}]]]}, {"config": {"activation": "relu6", "name": "conv_dw_1_relu", "trainable": true}, "class_name": "Activation", "name": "conv_dw_1_relu", "inbound_nodes": [[["conv_dw_1_bn", 0, 0, {}]]]}, {"config": {"name": "conv_pw_1", "use_bias": false, "kernel_size": [1, 1], "activation": "linear", "bias_constraint": null, "kernel_initializer": {"config": {"mode": "fan_avg", "seed": null, "scale": 1.0, "distribution": "uniform"}, "class_name": "VarianceScaling"}, "strides": [1, 1], "bias_initializer": {"config": {}, "class_name": "Zeros"}, "data_format": "channels_last", "padding": "same", "kernel_regularizer": null, "bias_regularizer": null, "kernel_constraint": null, "activity_regularizer": null, "dilation_rate": [1, 1], "trainable": true, "filters": 32}, "class_name": "Conv2D", "name": "conv_pw_1", "inbound_nodes": [[["conv_dw_1_relu", 0, 0, {}]]]}, {"config": {"name": "conv_pw_1_bn", "axis": -1, "moving_mean_initializer": {"config": {}, "class_name": "Zeros"}, "epsilon": 0.001, "gamma_regularizer": null, "beta_regularizer": null, "scale": true, "gamma_initializer": {"config": {}, "class_name": "Ones"}, "beta_initializer": {"config": {}, "class_name": "Zeros"}, "gamma_constraint": null, "center": true, "moving_variance_initializer": {"config": {}, "class_name": "Ones"}, "momentum": 0.99, "trainable": true, "beta_constraint": null}, "class_name": "BatchNormalization", "name": "conv_pw_1_bn", "inbound_nodes": [[["conv_pw_1", 0, 0, {}]]]}, {"config": {"activation": "relu6", "name": "conv_pw_1_relu", "trainable": true}, "class_name": "Activation", "name": "conv_pw_1_relu", "inbound_nodes": [[["conv_pw_1_bn", 0, 0, {}]]]}, {"config": {"depthwise_regularizer": null, "name": "conv_dw_2", "use_bias": false, "kernel_size": [3, 3], "activation": "linear", "bias_constraint": null, "strides": [2, 2], "bias_initializer": {"config": {}, "class_name": "Zeros"}, "depth_multiplier": 1, "data_format": "channels_last", "padding": "same", "bias_regularizer": null, "depthwise_constraint": null, "activity_regularizer": null, "dilation_rate": [1, 1], "trainable": true, "depthwise_initializer": {"config": {"mode": "fan_avg", "seed": null, "scale": 1.0, "distribution": "uniform"}, "class_name": "VarianceScaling"}}, "class_name": "DepthwiseConv2D", "name": "conv_dw_2", "inbound_nodes": [[["conv_pw_1_relu", 0, 0, {}]]]}, {"config": {"name": "conv_dw_2_bn", "axis": -1, "moving_mean_initializer": {"config": {}, "class_name": "Zeros"}, "epsilon": 0.001, "gamma_regularizer": null, "beta_regularizer": null, "scale": true, "gamma_initializer": {"config": {}, "class_name": "Ones"}, "beta_initializer": {"config": {}, "class_name": "Zeros"}, "gamma_constraint": null, "center": true, "moving_variance_initializer": {"config": {}, "class_name": "Ones"}, "momentum": 0.99, "trainable": true, "beta_constraint": null}, "class_name": "BatchNormalization", "name": "conv_dw_2_bn", "inbound_nodes": [[["conv_dw_2", 0, 0, {}]]]}, {"config": {"activation": "relu6", "name": "conv_dw_2_relu", "trainable": true}, "class_name": "Activation", "name": "conv_dw_2_relu", "inbound_nodes": [[["conv_dw_2_bn", 0, 0, {}]]]}, {"config": {"name": "conv_pw_2", "use_bias": false, "kernel_size": [1, 1], "activation": "linear", "bias_constraint": null, "kernel_initializer": {"config": {"mode": "fan_avg", "seed": null, "scale": 1.0, "distribution": "uniform"}, "class_name": "VarianceScaling"}, "strides": [1, 1], "bias_initializer": {"config": {}, "class_name": "Zeros"}, "data_format": "channels_last", "padding": "same", "kernel_regularizer": null, "bias_regularizer": null, "kernel_constraint": null, "activity_regularizer": null, "dilation_rate": [1, 1], "trainable": true, "filters": 64}, "class_name": "Conv2D", "name": "conv_pw_2", "inbound_nodes": [[["conv_dw_2_relu", 0, 0, {}]]]}, {"config": {"name": "conv_pw_2_bn", "axis": -1, "moving_mean_initializer": {"config": {}, "class_name": "Zeros"}, "epsilon": 0.001, "gamma_regularizer": null, "beta_regularizer": null, "scale": true, "gamma_initializer": {"config": {}, "class_name": "Ones"}, "beta_initializer": {"config": {}, "class_name": "Zeros"}, "gamma_constraint": null, "center": true, "moving_variance_initializer": {"config": {}, "class_name": "Ones"}, "momentum": 0.99, "trainable": true, "beta_constraint": null}, "class_name": "BatchNormalization", "name": "conv_pw_2_bn", "inbound_nodes": [[["conv_pw_2", 0, 0, {}]]]}, {"config": {"activation": "relu6", "name": "conv_pw_2_relu", "trainable": true}, "class_name": "Activation", "name": "conv_pw_2_relu", "inbound_nodes": [[["conv_pw_2_bn", 0, 0, {}]]]}, {"config": {"depthwise_regularizer": null, "name": "conv_dw_3", "use_bias": false, "kernel_size": [3, 3], "activation": "linear", "bias_constraint": null, "strides": [1, 1], "bias_initializer": {"config": {}, "class_name": "Zeros"}, "depth_multiplier": 1, "data_format": "channels_last", "padding": "same", "bias_regularizer": null, "depthwise_constraint": null, "activity_regularizer": null, "dilation_rate": [1, 1], "trainable": true, "depthwise_initializer": {"config": {"mode": "fan_avg", "seed": null, "scale": 1.0, "distribution": "uniform"}, "class_name": "VarianceScaling"}}, "class_name": "DepthwiseConv2D", "name": "conv_dw_3", "inbound_nodes": [[["conv_pw_2_relu", 0, 0, {}]]]}, {"config": {"name": "conv_dw_3_bn", "axis": -1, "moving_mean_initializer": {"config": {}, "class_name": "Zeros"}, "epsilon": 0.001, "gamma_regularizer": null, "beta_regularizer": null, "scale": true, "gamma_initializer": {"config": {}, "class_name": "Ones"}, "beta_initializer": {"config": {}, "class_name": "Zeros"}, "gamma_constraint": null, "center": true, "moving_variance_initializer": {"config": {}, "class_name": "Ones"}, "momentum": 0.99, "trainable": true, "beta_constraint": null}, "class_name": "BatchNormalization", "name": "conv_dw_3_bn", "inbound_nodes": [[["conv_dw_3", 0, 0, {}]]]}, {"config": {"activation": "relu6", "name": "conv_dw_3_relu", "trainable": true}, "class_name": "Activation", "name": "conv_dw_3_relu", "inbound_nodes": [[["conv_dw_3_bn", 0, 0, {}]]]}, {"config": {"name": "conv_pw_3", "use_bias": false, "kernel_size": [1, 1], "activation": "linear", "bias_constraint": null, "kernel_initializer": {"config": {"mode": "fan_avg", "seed": null, "scale": 1.0, "distribution": "uniform"}, "class_name": "VarianceScaling"}, "strides": [1, 1], "bias_initializer": {"config": {}, "class_name": "Zeros"}, "data_format": "channels_last", "padding": "same", "kernel_regularizer": null, "bias_regularizer": null, "kernel_constraint": null, "activity_regularizer": null, "dilation_rate": [1, 1], "trainable": true, "filters": 64}, "class_name": "Conv2D", "name": "conv_pw_3", "inbound_nodes": [[["conv_dw_3_relu", 0, 0, {}]]]}, {"config": {"name": "conv_pw_3_bn", "axis": -1, "moving_mean_initializer": {"config": {}, "class_name": "Zeros"}, "epsilon": 0.001, "gamma_regularizer": null, "beta_regularizer": null, "scale": true, "gamma_initializer": {"config": {}, "class_name": "Ones"}, "beta_initializer": {"config": {}, "class_name": "Zeros"}, "gamma_constraint": null, "center": true, "moving_variance_initializer": {"config": {}, "class_name": "Ones"}, "momentum": 0.99, "trainable": true, "beta_constraint": null}, "class_name": "BatchNormalization", "name": "conv_pw_3_bn", "inbound_nodes": [[["conv_pw_3", 0, 0, {}]]]}, {"config": {"activation": "relu6", "name": "conv_pw_3_relu", "trainable": true}, "class_name": "Activation", "name": "conv_pw_3_relu", "inbound_nodes": [[["conv_pw_3_bn", 0, 0, {}]]]}, {"config": {"depthwise_regularizer": null, "name": "conv_dw_4", "use_bias": false, "kernel_size": [3, 3], "activation": "linear", "bias_constraint": null, "strides": [2, 2], "bias_initializer": {"config": {}, "class_name": "Zeros"}, "depth_multiplier": 1, "data_format": "channels_last", "padding": "same", "bias_regularizer": null, "depthwise_constraint": null, "activity_regularizer": null, "dilation_rate": [1, 1], "trainable": true, "depthwise_initializer": {"config": {"mode": "fan_avg", "seed": null, "scale": 1.0, "distribution": "uniform"}, "class_name": "VarianceScaling"}}, "class_name": "DepthwiseConv2D", "name": "conv_dw_4", "inbound_nodes": [[["conv_pw_3_relu", 0, 0, {}]]]}, {"config": {"name": "conv_dw_4_bn", "axis": -1, "moving_mean_initializer": {"config": {}, "class_name": "Zeros"}, "epsilon": 0.001, "gamma_regularizer": null, "beta_regularizer": null, "scale": true, "gamma_initializer": {"config": {}, "class_name": "Ones"}, "beta_initializer": {"config": {}, "class_name": "Zeros"}, "gamma_constraint": null, "center": true, "moving_variance_initializer": {"config": {}, "class_name": "Ones"}, "momentum": 0.99, "trainable": true, "beta_constraint": null}, "class_name": "BatchNormalization", "name": "conv_dw_4_bn", "inbound_nodes": [[["conv_dw_4", 0, 0, {}]]]}, {"config": {"activation": "relu6", "name": "conv_dw_4_relu", "trainable": true}, "class_name": "Activation", "name": "conv_dw_4_relu", "inbound_nodes": [[["conv_dw_4_bn", 0, 0, {}]]]}, {"config": {"name": "conv_pw_4", "use_bias": false, "kernel_size": [1, 1], "activation": "linear", "bias_constraint": null, "kernel_initializer": {"config": {"mode": "fan_avg", "seed": null, "scale": 1.0, "distribution": "uniform"}, "class_name": "VarianceScaling"}, "strides": [1, 1], "bias_initializer": {"config": {}, "class_name": "Zeros"}, "data_format": "channels_last", "padding": "same", "kernel_regularizer": null, "bias_regularizer": null, "kernel_constraint": null, "activity_regularizer": null, "dilation_rate": [1, 1], "trainable": true, "filters": 128}, "class_name": "Conv2D", "name": "conv_pw_4", "inbound_nodes": [[["conv_dw_4_relu", 0, 0, {}]]]}, {"config": {"name": "conv_pw_4_bn", "axis": -1, "moving_mean_initializer": {"config": {}, "class_name": "Zeros"}, "epsilon": 0.001, "gamma_regularizer": null, "beta_regularizer": null, "scale": true, "gamma_initializer": {"config": {}, "class_name": "Ones"}, "beta_initializer": {"config": {}, "class_name": "Zeros"}, "gamma_constraint": null, "center": true, "moving_variance_initializer": {"config": {}, "class_name": "Ones"}, "momentum": 0.99, "trainable": true, "beta_constraint": null}, "class_name": "BatchNormalization", "name": "conv_pw_4_bn", "inbound_nodes": [[["conv_pw_4", 0, 0, {}]]]}, {"config": {"activation": "relu6", "name": "conv_pw_4_relu", "trainable": true}, "class_name": "Activation", "name": "conv_pw_4_relu", "inbound_nodes": [[["conv_pw_4_bn", 0, 0, {}]]]}, {"config": {"depthwise_regularizer": null, "name": "conv_dw_5", "use_bias": false, "kernel_size": [3, 3], "activation": "linear", "bias_constraint": null, "strides": [1, 1], "bias_initializer": {"config": {}, "class_name": "Zeros"}, "depth_multiplier": 1, "data_format": "channels_last", "padding": "same", "bias_regularizer": null, "depthwise_constraint": null, "activity_regularizer": null, "dilation_rate": [1, 1], "trainable": true, "depthwise_initializer": {"config": {"mode": "fan_avg", "seed": null, "scale": 1.0, "distribution": "uniform"}, "class_name": "VarianceScaling"}}, "class_name": "DepthwiseConv2D", "name": "conv_dw_5", "inbound_nodes": [[["conv_pw_4_relu", 0, 0, {}]]]}, {"config": {"name": "conv_dw_5_bn", "axis": -1, "moving_mean_initializer": {"config": {}, "class_name": "Zeros"}, "epsilon": 0.001, "gamma_regularizer": null, "beta_regularizer": null, "scale": true, "gamma_initializer": {"config": {}, "class_name": "Ones"}, "beta_initializer": {"config": {}, "class_name": "Zeros"}, "gamma_constraint": null, "center": true, "moving_variance_initializer": {"config": {}, "class_name": "Ones"}, "momentum": 0.99, "trainable": true, "beta_constraint": null}, "class_name": "BatchNormalization", "name": "conv_dw_5_bn", "inbound_nodes": [[["conv_dw_5", 0, 0, {}]]]}, {"config": {"activation": "relu6", "name": "conv_dw_5_relu", "trainable": true}, "class_name": "Activation", "name": "conv_dw_5_relu", "inbound_nodes": [[["conv_dw_5_bn", 0, 0, {}]]]}, {"config": {"name": "conv_pw_5", "use_bias": false, "kernel_size": [1, 1], "activation": "linear", "bias_constraint": null, "kernel_initializer": {"config": {"mode": "fan_avg", "seed": null, "scale": 1.0, "distribution": "uniform"}, "class_name": "VarianceScaling"}, "strides": [1, 1], "bias_initializer": {"config": {}, "class_name": "Zeros"}, "data_format": "channels_last", "padding": "same", "kernel_regularizer": null, "bias_regularizer": null, "kernel_constraint": null, "activity_regularizer": null, "dilation_rate": [1, 1], "trainable": true, "filters": 128}, "class_name": "Conv2D", "name": "conv_pw_5", "inbound_nodes": [[["conv_dw_5_relu", 0, 0, {}]]]}, {"config": {"name": "conv_pw_5_bn", "axis": -1, "moving_mean_initializer": {"config": {}, "class_name": "Zeros"}, "epsilon": 0.001, "gamma_regularizer": null, "beta_regularizer": null, "scale": true, "gamma_initializer": {"config": {}, "class_name": "Ones"}, "beta_initializer": {"config": {}, "class_name": "Zeros"}, "gamma_constraint": null, "center": true, "moving_variance_initializer": {"config": {}, "class_name": "Ones"}, "momentum": 0.99, "trainable": true, "beta_constraint": null}, "class_name": "BatchNormalization", "name": "conv_pw_5_bn", "inbound_nodes": [[["conv_pw_5", 0, 0, {}]]]}, {"config": {"activation": "relu6", "name": "conv_pw_5_relu", "trainable": true}, "class_name": "Activation", "name": "conv_pw_5_relu", "inbound_nodes": [[["conv_pw_5_bn", 0, 0, {}]]]}, {"config": {"depthwise_regularizer": null, "name": "conv_dw_6", "use_bias": false, "kernel_size": [3, 3], "activation": "linear", "bias_constraint": null, "strides": [2, 2], "bias_initializer": {"config": {}, "class_name": "Zeros"}, "depth_multiplier": 1, "data_format": "channels_last", "padding": "same", "bias_regularizer": null, "depthwise_constraint": null, "activity_regularizer": null, "dilation_rate": [1, 1], "trainable": true, "depthwise_initializer": {"config": {"mode": "fan_avg", "seed": null, "scale": 1.0, "distribution": "uniform"}, "class_name": "VarianceScaling"}}, "class_name": "DepthwiseConv2D", "name": "conv_dw_6", "inbound_nodes": [[["conv_pw_5_relu", 0, 0, {}]]]}, {"config": {"name": "conv_dw_6_bn", "axis": -1, "moving_mean_initializer": {"config": {}, "class_name": "Zeros"}, "epsilon": 0.001, "gamma_regularizer": null, "beta_regularizer": null, "scale": true, "gamma_initializer": {"config": {}, "class_name": "Ones"}, "beta_initializer": {"config": {}, "class_name": "Zeros"}, "gamma_constraint": null, "center": true, "moving_variance_initializer": {"config": {}, "class_name": "Ones"}, "momentum": 0.99, "trainable": true, "beta_constraint": null}, "class_name": "BatchNormalization", "name": "conv_dw_6_bn", "inbound_nodes": [[["conv_dw_6", 0, 0, {}]]]}, {"config": {"activation": "relu6", "name": "conv_dw_6_relu", "trainable": true}, "class_name": "Activation", "name": "conv_dw_6_relu", "inbound_nodes": [[["conv_dw_6_bn", 0, 0, {}]]]}, {"config": {"name": "conv_pw_6", "use_bias": false, "kernel_size": [1, 1], "activation": "linear", "bias_constraint": null, "kernel_initializer": {"config": {"mode": "fan_avg", "seed": null, "scale": 1.0, "distribution": "uniform"}, "class_name": "VarianceScaling"}, "strides": [1, 1], "bias_initializer": {"config": {}, "class_name": "Zeros"}, "data_format": "channels_last", "padding": "same", "kernel_regularizer": null, "bias_regularizer": null, "kernel_constraint": null, "activity_regularizer": null, "dilation_rate": [1, 1], "trainable": true, "filters": 256}, "class_name": "Conv2D", "name": "conv_pw_6", "inbound_nodes": [[["conv_dw_6_relu", 0, 0, {}]]]}, {"config": {"name": "conv_pw_6_bn", "axis": -1, "moving_mean_initializer": {"config": {}, "class_name": "Zeros"}, "epsilon": 0.001, "gamma_regularizer": null, "beta_regularizer": null, "scale": true, "gamma_initializer": {"config": {}, "class_name": "Ones"}, "beta_initializer": {"config": {}, "class_name": "Zeros"}, "gamma_constraint": null, "center": true, "moving_variance_initializer": {"config": {}, "class_name": "Ones"}, "momentum": 0.99, "trainable": true, "beta_constraint": null}, "class_name": "BatchNormalization", "name": "conv_pw_6_bn", "inbound_nodes": [[["conv_pw_6", 0, 0, {}]]]}, {"config": {"activation": "relu6", "name": "conv_pw_6_relu", "trainable": true}, "class_name": "Activation", "name": "conv_pw_6_relu", "inbound_nodes": [[["conv_pw_6_bn", 0, 0, {}]]]}, {"config": {"depthwise_regularizer": null, "name": "conv_dw_7", "use_bias": false, "kernel_size": [3, 3], "activation": "linear", "bias_constraint": null, "strides": [1, 1], "bias_initializer": {"config": {}, "class_name": "Zeros"}, "depth_multiplier": 1, "data_format": "channels_last", "padding": "same", "bias_regularizer": null, "depthwise_constraint": null, "activity_regularizer": null, "dilation_rate": [1, 1], "trainable": true, "depthwise_initializer": {"config": {"mode": "fan_avg", "seed": null, "scale": 1.0, "distribution": "uniform"}, "class_name": "VarianceScaling"}}, "class_name": "DepthwiseConv2D", "name": "conv_dw_7", "inbound_nodes": [[["conv_pw_6_relu", 0, 0, {}]]]}, {"config": {"name": "conv_dw_7_bn", "axis": -1, "moving_mean_initializer": {"config": {}, "class_name": "Zeros"}, "epsilon": 0.001, "gamma_regularizer": null, "beta_regularizer": null, "scale": true, "gamma_initializer": {"config": {}, "class_name": "Ones"}, "beta_initializer": {"config": {}, "class_name": "Zeros"}, "gamma_constraint": null, "center": true, "moving_variance_initializer": {"config": {}, "class_name": "Ones"}, "momentum": 0.99, "trainable": true, "beta_constraint": null}, "class_name": "BatchNormalization", "name": "conv_dw_7_bn", "inbound_nodes": [[["conv_dw_7", 0, 0, {}]]]}, {"config": {"activation": "relu6", "name": "conv_dw_7_relu", "trainable": true}, "class_name": "Activation", "name": "conv_dw_7_relu", "inbound_nodes": [[["conv_dw_7_bn", 0, 0, {}]]]}, {"config": {"name": "conv_pw_7", "use_bias": false, "kernel_size": [1, 1], "activation": "linear", "bias_constraint": null, "kernel_initializer": {"config": {"mode": "fan_avg", "seed": null, "scale": 1.0, "distribution": "uniform"}, "class_name": "VarianceScaling"}, "strides": [1, 1], "bias_initializer": {"config": {}, "class_name": "Zeros"}, "data_format": "channels_last", "padding": "same", "kernel_regularizer": null, "bias_regularizer": null, "kernel_constraint": null, "activity_regularizer": null, "dilation_rate": [1, 1], "trainable": true, "filters": 256}, "class_name": "Conv2D", "name": "conv_pw_7", "inbound_nodes": [[["conv_dw_7_relu", 0, 0, {}]]]}, {"config": {"name": "conv_pw_7_bn", "axis": -1, "moving_mean_initializer": {"config": {}, "class_name": "Zeros"}, "epsilon": 0.001, "gamma_regularizer": null, "beta_regularizer": null, "scale": true, "gamma_initializer": {"config": {}, "class_name": "Ones"}, "beta_initializer": {"config": {}, "class_name": "Zeros"}, "gamma_constraint": null, "center": true, "moving_variance_initializer": {"config": {}, "class_name": "Ones"}, "momentum": 0.99, "trainable": true, "beta_constraint": null}, "class_name": "BatchNormalization", "name": "conv_pw_7_bn", "inbound_nodes": [[["conv_pw_7", 0, 0, {}]]]}, {"config": {"activation": "relu6", "name": "conv_pw_7_relu", "trainable": true}, "class_name": "Activation", "name": "conv_pw_7_relu", "inbound_nodes": [[["conv_pw_7_bn", 0, 0, {}]]]}, {"config": {"depthwise_regularizer": null, "name": "conv_dw_8", "use_bias": false, "kernel_size": [3, 3], "activation": "linear", "bias_constraint": null, "strides": [1, 1], "bias_initializer": {"config": {}, "class_name": "Zeros"}, "depth_multiplier": 1, "data_format": "channels_last", "padding": "same", "bias_regularizer": null, "depthwise_constraint": null, "activity_regularizer": null, "dilation_rate": [1, 1], "trainable": true, "depthwise_initializer": {"config": {"mode": "fan_avg", "seed": null, "scale": 1.0, "distribution": "uniform"}, "class_name": "VarianceScaling"}}, "class_name": "DepthwiseConv2D", "name": "conv_dw_8", "inbound_nodes": [[["conv_pw_7_relu", 0, 0, {}]]]}, {"config": {"name": "conv_dw_8_bn", "axis": -1, "moving_mean_initializer": {"config": {}, "class_name": "Zeros"}, "epsilon": 0.001, "gamma_regularizer": null, "beta_regularizer": null, "scale": true, "gamma_initializer": {"config": {}, "class_name": "Ones"}, "beta_initializer": {"config": {}, "class_name": "Zeros"}, "gamma_constraint": null, "center": true, "moving_variance_initializer": {"config": {}, "class_name": "Ones"}, "momentum": 0.99, "trainable": true, "beta_constraint": null}, "class_name": "BatchNormalization", "name": "conv_dw_8_bn", "inbound_nodes": [[["conv_dw_8", 0, 0, {}]]]}, {"config": {"activation": "relu6", "name": "conv_dw_8_relu", "trainable": true}, "class_name": "Activation", "name": "conv_dw_8_relu", "inbound_nodes": [[["conv_dw_8_bn", 0, 0, {}]]]}, {"config": {"name": "conv_pw_8", "use_bias": false, "kernel_size": [1, 1], "activation": "linear", "bias_constraint": null, "kernel_initializer": {"config": {"mode": "fan_avg", "seed": null, "scale": 1.0, "distribution": "uniform"}, "class_name": "VarianceScaling"}, "strides": [1, 1], "bias_initializer": {"config": {}, "class_name": "Zeros"}, "data_format": "channels_last", "padding": "same", "kernel_regularizer": null, "bias_regularizer": null, "kernel_constraint": null, "activity_regularizer": null, "dilation_rate": [1, 1], "trainable": true, "filters": 256}, "class_name": "Conv2D", "name": "conv_pw_8", "inbound_nodes": [[["conv_dw_8_relu", 0, 0, {}]]]}, {"config": {"name": "conv_pw_8_bn", "axis": -1, "moving_mean_initializer": {"config": {}, "class_name": "Zeros"}, "epsilon": 0.001, "gamma_regularizer": null, "beta_regularizer": null, "scale": true, "gamma_initializer": {"config": {}, "class_name": "Ones"}, "beta_initializer": {"config": {}, "class_name": "Zeros"}, "gamma_constraint": null, "center": true, "moving_variance_initializer": {"config": {}, "class_name": "Ones"}, "momentum": 0.99, "trainable": true, "beta_constraint": null}, "class_name": "BatchNormalization", "name": "conv_pw_8_bn", "inbound_nodes": [[["conv_pw_8", 0, 0, {}]]]}, {"config": {"activation": "relu6", "name": "conv_pw_8_relu", "trainable": true}, "class_name": "Activation", "name": "conv_pw_8_relu", "inbound_nodes": [[["conv_pw_8_bn", 0, 0, {}]]]}, {"config": {"depthwise_regularizer": null, "name": "conv_dw_9", "use_bias": false, "kernel_size": [3, 3], "activation": "linear", "bias_constraint": null, "strides": [1, 1], "bias_initializer": {"config": {}, "class_name": "Zeros"}, "depth_multiplier": 1, "data_format": "channels_last", "padding": "same", "bias_regularizer": null, "depthwise_constraint": null, "activity_regularizer": null, "dilation_rate": [1, 1], "trainable": true, "depthwise_initializer": {"config": {"mode": "fan_avg", "seed": null, "scale": 1.0, "distribution": "uniform"}, "class_name": "VarianceScaling"}}, "class_name": "DepthwiseConv2D", "name": "conv_dw_9", "inbound_nodes": [[["conv_pw_8_relu", 0, 0, {}]]]}, {"config": {"name": "conv_dw_9_bn", "axis": -1, "moving_mean_initializer": {"config": {}, "class_name": "Zeros"}, "epsilon": 0.001, "gamma_regularizer": null, "beta_regularizer": null, "scale": true, "gamma_initializer": {"config": {}, "class_name": "Ones"}, "beta_initializer": {"config": {}, "class_name": "Zeros"}, "gamma_constraint": null, "center": true, "moving_variance_initializer": {"config": {}, "class_name": "Ones"}, "momentum": 0.99, "trainable": true, "beta_constraint": null}, "class_name": "BatchNormalization", "name": "conv_dw_9_bn", "inbound_nodes": [[["conv_dw_9", 0, 0, {}]]]}, {"config": {"activation": "relu6", "name": "conv_dw_9_relu", "trainable": true}, "class_name": "Activation", "name": "conv_dw_9_relu", "inbound_nodes": [[["conv_dw_9_bn", 0, 0, {}]]]}, {"config": {"name": "conv_pw_9", "use_bias": false, "kernel_size": [1, 1], "activation": "linear", "bias_constraint": null, "kernel_initializer": {"config": {"mode": "fan_avg", "seed": null, "scale": 1.0, "distribution": "uniform"}, "class_name": "VarianceScaling"}, "strides": [1, 1], "bias_initializer": {"config": {}, "class_name": "Zeros"}, "data_format": "channels_last", "padding": "same", "kernel_regularizer": null, "bias_regularizer": null, "kernel_constraint": null, "activity_regularizer": null, "dilation_rate": [1, 1], "trainable": true, "filters": 256}, "class_name": "Conv2D", "name": "conv_pw_9", "inbound_nodes": [[["conv_dw_9_relu", 0, 0, {}]]]}, {"config": {"name": "conv_pw_9_bn", "axis": -1, "moving_mean_initializer": {"config": {}, "class_name": "Zeros"}, "epsilon": 0.001, "gamma_regularizer": null, "beta_regularizer": null, "scale": true, "gamma_initializer": {"config": {}, "class_name": "Ones"}, "beta_initializer": {"config": {}, "class_name": "Zeros"}, "gamma_constraint": null, "center": true, "moving_variance_initializer": {"config": {}, "class_name": "Ones"}, "momentum": 0.99, "trainable": true, "beta_constraint": null}, "class_name": "BatchNormalization", "name": "conv_pw_9_bn", "inbound_nodes": [[["conv_pw_9", 0, 0, {}]]]}, {"config": {"activation": "relu6", "name": "conv_pw_9_relu", "trainable": true}, "class_name": "Activation", "name": "conv_pw_9_relu", "inbound_nodes": [[["conv_pw_9_bn", 0, 0, {}]]]}, {"config": {"depthwise_regularizer": null, "name": "conv_dw_10", "use_bias": false, "kernel_size": [3, 3], "activation": "linear", "bias_constraint": null, "strides": [1, 1], "bias_initializer": {"config": {}, "class_name": "Zeros"}, "depth_multiplier": 1, "data_format": "channels_last", "padding": "same", "bias_regularizer": null, "depthwise_constraint": null, "activity_regularizer": null, "dilation_rate": [1, 1], "trainable": true, "depthwise_initializer": {"config": {"mode": "fan_avg", "seed": null, "scale": 1.0, "distribution": "uniform"}, "class_name": "VarianceScaling"}}, "class_name": "DepthwiseConv2D", "name": "conv_dw_10", "inbound_nodes": [[["conv_pw_9_relu", 0, 0, {}]]]}, {"config": {"name": "conv_dw_10_bn", "axis": -1, "moving_mean_initializer": {"config": {}, "class_name": "Zeros"}, "epsilon": 0.001, "gamma_regularizer": null, "beta_regularizer": null, "scale": true, "gamma_initializer": {"config": {}, "class_name": "Ones"}, "beta_initializer": {"config": {}, "class_name": "Zeros"}, "gamma_constraint": null, "center": true, "moving_variance_initializer": {"config": {}, "class_name": "Ones"}, "momentum": 0.99, "trainable": true, "beta_constraint": null}, "class_name": "BatchNormalization", "name": "conv_dw_10_bn", "inbound_nodes": [[["conv_dw_10", 0, 0, {}]]]}, {"config": {"activation": "relu6", "name": "conv_dw_10_relu", "trainable": true}, "class_name": "Activation", "name": "conv_dw_10_relu", "inbound_nodes": [[["conv_dw_10_bn", 0, 0, {}]]]}, {"config": {"name": "conv_pw_10", "use_bias": false, "kernel_size": [1, 1], "activation": "linear", "bias_constraint": null, "kernel_initializer": {"config": {"mode": "fan_avg", "seed": null, "scale": 1.0, "distribution": "uniform"}, "class_name": "VarianceScaling"}, "strides": [1, 1], "bias_initializer": {"config": {}, "class_name": "Zeros"}, "data_format": "channels_last", "padding": "same", "kernel_regularizer": null, "bias_regularizer": null, "kernel_constraint": null, "activity_regularizer": null, "dilation_rate": [1, 1], "trainable": true, "filters": 256}, "class_name": "Conv2D", "name": "conv_pw_10", "inbound_nodes": [[["conv_dw_10_relu", 0, 0, {}]]]}, {"config": {"name": "conv_pw_10_bn", "axis": -1, "moving_mean_initializer": {"config": {}, "class_name": "Zeros"}, "epsilon": 0.001, "gamma_regularizer": null, "beta_regularizer": null, "scale": true, "gamma_initializer": {"config": {}, "class_name": "Ones"}, "beta_initializer": {"config": {}, "class_name": "Zeros"}, "gamma_constraint": null, "center": true, "moving_variance_initializer": {"config": {}, "class_name": "Ones"}, "momentum": 0.99, "trainable": true, "beta_constraint": null}, "class_name": "BatchNormalization", "name": "conv_pw_10_bn", "inbound_nodes": [[["conv_pw_10", 0, 0, {}]]]}, {"config": {"activation": "relu6", "name": "conv_pw_10_relu", "trainable": true}, "class_name": "Activation", "name": "conv_pw_10_relu", "inbound_nodes": [[["conv_pw_10_bn", 0, 0, {}]]]}, {"config": {"depthwise_regularizer": null, "name": "conv_dw_11", "use_bias": false, "kernel_size": [3, 3], "activation": "linear", "bias_constraint": null, "strides": [1, 1], "bias_initializer": {"config": {}, "class_name": "Zeros"}, "depth_multiplier": 1, "data_format": "channels_last", "padding": "same", "bias_regularizer": null, "depthwise_constraint": null, "activity_regularizer": null, "dilation_rate": [1, 1], "trainable": true, "depthwise_initializer": {"config": {"mode": "fan_avg", "seed": null, "scale": 1.0, "distribution": "uniform"}, "class_name": "VarianceScaling"}}, "class_name": "DepthwiseConv2D", "name": "conv_dw_11", "inbound_nodes": [[["conv_pw_10_relu", 0, 0, {}]]]}, {"config": {"name": "conv_dw_11_bn", "axis": -1, "moving_mean_initializer": {"config": {}, "class_name": "Zeros"}, "epsilon": 0.001, "gamma_regularizer": null, "beta_regularizer": null, "scale": true, "gamma_initializer": {"config": {}, "class_name": "Ones"}, "beta_initializer": {"config": {}, "class_name": "Zeros"}, "gamma_constraint": null, "center": true, "moving_variance_initializer": {"config": {}, "class_name": "Ones"}, "momentum": 0.99, "trainable": true, "beta_constraint": null}, "class_name": "BatchNormalization", "name": "conv_dw_11_bn", "inbound_nodes": [[["conv_dw_11", 0, 0, {}]]]}, {"config": {"activation": "relu6", "name": "conv_dw_11_relu", "trainable": true}, "class_name": "Activation", "name": "conv_dw_11_relu", "inbound_nodes": [[["conv_dw_11_bn", 0, 0, {}]]]}, {"config": {"name": "conv_pw_11", "use_bias": false, "kernel_size": [1, 1], "activation": "linear", "bias_constraint": null, "kernel_initializer": {"config": {"mode": "fan_avg", "seed": null, "scale": 1.0, "distribution": "uniform"}, "class_name": "VarianceScaling"}, "strides": [1, 1], "bias_initializer": {"config": {}, "class_name": "Zeros"}, "data_format": "channels_last", "padding": "same", "kernel_regularizer": null, "bias_regularizer": null, "kernel_constraint": null, "activity_regularizer": null, "dilation_rate": [1, 1], "trainable": true, "filters": 256}, "class_name": "Conv2D", "name": "conv_pw_11", "inbound_nodes": [[["conv_dw_11_relu", 0, 0, {}]]]}, {"config": {"name": "conv_pw_11_bn", "axis": -1, "moving_mean_initializer": {"config": {}, "class_name": "Zeros"}, "epsilon": 0.001, "gamma_regularizer": null, "beta_regularizer": null, "scale": true, "gamma_initializer": {"config": {}, "class_name": "Ones"}, "beta_initializer": {"config": {}, "class_name": "Zeros"}, "gamma_constraint": null, "center": true, "moving_variance_initializer": {"config": {}, "class_name": "Ones"}, "momentum": 0.99, "trainable": true, "beta_constraint": null}, "class_name": "BatchNormalization", "name": "conv_pw_11_bn", "inbound_nodes": [[["conv_pw_11", 0, 0, {}]]]}, {"config": {"activation": "relu6", "name": "conv_pw_11_relu", "trainable": true}, "class_name": "Activation", "name": "conv_pw_11_relu", "inbound_nodes": [[["conv_pw_11_bn", 0, 0, {}]]]}, {"config": {"depthwise_regularizer": null, "name": "conv_dw_12", "use_bias": false, "kernel_size": [3, 3], "activation": "linear", "bias_constraint": null, "strides": [2, 2], "bias_initializer": {"config": {}, "class_name": "Zeros"}, "depth_multiplier": 1, "data_format": "channels_last", "padding": "same", "bias_regularizer": null, "depthwise_constraint": null, "activity_regularizer": null, "dilation_rate": [1, 1], "trainable": true, "depthwise_initializer": {"config": {"mode": "fan_avg", "seed": null, "scale": 1.0, "distribution": "uniform"}, "class_name": "VarianceScaling"}}, "class_name": "DepthwiseConv2D", "name": "conv_dw_12", "inbound_nodes": [[["conv_pw_11_relu", 0, 0, {}]]]}, {"config": {"name": "conv_dw_12_bn", "axis": -1, "moving_mean_initializer": {"config": {}, "class_name": "Zeros"}, "epsilon": 0.001, "gamma_regularizer": null, "beta_regularizer": null, "scale": true, "gamma_initializer": {"config": {}, "class_name": "Ones"}, "beta_initializer": {"config": {}, "class_name": "Zeros"}, "gamma_constraint": null, "center": true, "moving_variance_initializer": {"config": {}, "class_name": "Ones"}, "momentum": 0.99, "trainable": true, "beta_constraint": null}, "class_name": "BatchNormalization", "name": "conv_dw_12_bn", "inbound_nodes": [[["conv_dw_12", 0, 0, {}]]]}, {"config": {"activation": "relu6", "name": "conv_dw_12_relu", "trainable": true}, "class_name": "Activation", "name": "conv_dw_12_relu", "inbound_nodes": [[["conv_dw_12_bn", 0, 0, {}]]]}, {"config": {"name": "conv_pw_12", "use_bias": false, "kernel_size": [1, 1], "activation": "linear", "bias_constraint": null, "kernel_initializer": {"config": {"mode": "fan_avg", "seed": null, "scale": 1.0, "distribution": "uniform"}, "class_name": "VarianceScaling"}, "strides": [1, 1], "bias_initializer": {"config": {}, "class_name": "Zeros"}, "data_format": "channels_last", "padding": "same", "kernel_regularizer": null, "bias_regularizer": null, "kernel_constraint": null, "activity_regularizer": null, "dilation_rate": [1, 1], "trainable": true, "filters": 512}, "class_name": "Conv2D", "name": "conv_pw_12", "inbound_nodes": [[["conv_dw_12_relu", 0, 0, {}]]]}, {"config": {"name": "conv_pw_12_bn", "axis": -1, "moving_mean_initializer": {"config": {}, "class_name": "Zeros"}, "epsilon": 0.001, "gamma_regularizer": null, "beta_regularizer": null, "scale": true, "gamma_initializer": {"config": {}, "class_name": "Ones"}, "beta_initializer": {"config": {}, "class_name": "Zeros"}, "gamma_constraint": null, "center": true, "moving_variance_initializer": {"config": {}, "class_name": "Ones"}, "momentum": 0.99, "trainable": true, "beta_constraint": null}, "class_name": "BatchNormalization", "name": "conv_pw_12_bn", "inbound_nodes": [[["conv_pw_12", 0, 0, {}]]]}, {"config": {"activation": "relu6", "name": "conv_pw_12_relu", "trainable": true}, "class_name": "Activation", "name": "conv_pw_12_relu", "inbound_nodes": [[["conv_pw_12_bn", 0, 0, {}]]]}, {"config": {"depthwise_regularizer": null, "name": "conv_dw_13", "use_bias": false, "kernel_size": [3, 3], "activation": "linear", "bias_constraint": null, "strides": [1, 1], "bias_initializer": {"config": {}, "class_name": "Zeros"}, "depth_multiplier": 1, "data_format": "channels_last", "padding": "same", "bias_regularizer": null, "depthwise_constraint": null, "activity_regularizer": null, "dilation_rate": [1, 1], "trainable": true, "depthwise_initializer": {"config": {"mode": "fan_avg", "seed": null, "scale": 1.0, "distribution": "uniform"}, "class_name": "VarianceScaling"}}, "class_name": "DepthwiseConv2D", "name": "conv_dw_13", "inbound_nodes": [[["conv_pw_12_relu", 0, 0, {}]]]}, {"config": {"name": "conv_dw_13_bn", "axis": -1, "moving_mean_initializer": {"config": {}, "class_name": "Zeros"}, "epsilon": 0.001, "gamma_regularizer": null, "beta_regularizer": null, "scale": true, "gamma_initializer": {"config": {}, "class_name": "Ones"}, "beta_initializer": {"config": {}, "class_name": "Zeros"}, "gamma_constraint": null, "center": true, "moving_variance_initializer": {"config": {}, "class_name": "Ones"}, "momentum": 0.99, "trainable": true, "beta_constraint": null}, "class_name": "BatchNormalization", "name": "conv_dw_13_bn", "inbound_nodes": [[["conv_dw_13", 0, 0, {}]]]}, {"config": {"activation": "relu6", "name": "conv_dw_13_relu", "trainable": true}, "class_name": "Activation", "name": "conv_dw_13_relu", "inbound_nodes": [[["conv_dw_13_bn", 0, 0, {}]]]}, {"config": {"name": "conv_pw_13", "use_bias": false, "kernel_size": [1, 1], "activation": "linear", "bias_constraint": null, "kernel_initializer": {"config": {"mode": "fan_avg", "seed": null, "scale": 1.0, "distribution": "uniform"}, "class_name": "VarianceScaling"}, "strides": [1, 1], "bias_initializer": {"config": {}, "class_name": "Zeros"}, "data_format": "channels_last", "padding": "same", "kernel_regularizer": null, "bias_regularizer": null, "kernel_constraint": null, "activity_regularizer": null, "dilation_rate": [1, 1], "trainable": true, "filters": 512}, "class_name": "Conv2D", "name": "conv_pw_13", "inbound_nodes": [[["conv_dw_13_relu", 0, 0, {}]]]}, {"config": {"name": "conv_pw_13_bn", "axis": -1, "moving_mean_initializer": {"config": {}, "class_name": "Zeros"}, "epsilon": 0.001, "gamma_regularizer": null, "beta_regularizer": null, "scale": true, "gamma_initializer": {"config": {}, "class_name": "Ones"}, "beta_initializer": {"config": {}, "class_name": "Zeros"}, "gamma_constraint": null, "center": true, "moving_variance_initializer": {"config": {}, "class_name": "Ones"}, "momentum": 0.99, "trainable": true, "beta_constraint": null}, "class_name": "BatchNormalization", "name": "conv_pw_13_bn", "inbound_nodes": [[["conv_pw_13", 0, 0, {}]]]}, {"config": {"activation": "relu6", "name": "conv_pw_13_relu", "trainable": true}, "class_name": "Activation", "name": "conv_pw_13_relu", "inbound_nodes": [[["conv_pw_13_bn", 0, 0, {}]]]}]}, "class_name": "Model", "name": "mobilenet_0.50_64", "inbound_nodes": [[["input_1", 0, 0, {}]]]}, {"config": {"name": "conv2d_1", "use_bias": true, "bias_regularizer": null, "activation": "relu", "bias_constraint": null, "kernel_initializer": {"config": {"mode": "fan_avg", "seed": null, "scale": 1.0, "distribution": "uniform"}, "class_name": "VarianceScaling"}, "bias_initializer": {"config": {}, "class_name": "Zeros"}, "data_format": "channels_last", "padding": "valid", "kernel_regularizer": null, "kernel_size": [1, 1], "kernel_constraint": null, "activity_regularizer": null, "strides": [1, 1], "dilation_rate": [1, 1], "trainable": true, "filters": 20}, "class_name": "Conv2D", "name": "conv2d_1", "inbound_nodes": [[["mobilenet_0.50_64", 1, 0, {}]]]}, {"config": {"name": "flatten_1", "trainable": true}, "class_name": "Flatten", "name": "flatten_1", "inbound_nodes": [[["conv2d_1", 0, 0, {}]]]}, {"config": {"rate": 0.2, "name": "dropout_1", "trainable": true}, "class_name": "Dropout", "name": "dropout_1", "inbound_nodes": [[["flatten_1", 0, 0, {}]]]}, {"config": {"units": 32, "name": "feat_a", "use_bias": true, "bias_regularizer": null, "activation": "relu", "bias_constraint": null, "kernel_initializer": {"config": {"mode": "fan_avg", "seed": null, "scale": 1.0, "distribution": "uniform"}, "class_name": "VarianceScaling"}, "bias_initializer": {"config": {}, "class_name": "Zeros"}, "kernel_regularizer": null, "activity_regularizer": null, "kernel_constraint": null, "trainable": true}, "class_name": "Dense", "name": "feat_a", "inbound_nodes": [[["dropout_1", 0, 0, {}]]]}, {"config": {"units": 1, "name": "pred_a", "use_bias": true, "bias_regularizer": null, "activation": "linear", "bias_constraint": null, "kernel_initializer": {"config": {"mode": "fan_avg", "seed": null, "scale": 1.0, "distribution": "uniform"}, "class_name": "VarianceScaling"}, "bias_initializer": {"config": {}, "class_name": "Zeros"}, "kernel_regularizer": null, "activity_regularizer": null, "kernel_constraint": null, "trainable": true}, "class_name": "Dense", "name": "pred_a", "inbound_nodes": [[["feat_a", 0, 0, {}]]]}]}, "class_name": "Model", "backend": "tensorflow", "keras_version": "2.0.6"}