{"keras_version": "2.0.6", "config": {"name": "model_1", "input_layers": [["input_1", 0, 0]], "output_layers": [["pred_a", 0, 0]], "layers": [{"config": {"batch_input_shape": [null, 64, 64, 3], "name": "input_1", "dtype": "float32", "sparse": false}, "name": "input_1", "inbound_nodes": [], "class_name": "InputLayer"}, {"config": {"name": "densenet", "input_layers": [["input_2", 0, 0]], "output_layers": [["global_average_pooling2d_1", 0, 0]], "layers": [{"inbound_nodes": [], "name": "input_2", "config": {"dtype": "float32", "name": "input_2", "batch_input_shape": [null, 64, 64, 3], "sparse": false}, "class_name": "InputLayer"}, {"inbound_nodes": [[["input_2", 0, 0, {}]]], "name": "conv2d_1", "config": {"filters": 24, "activation": "linear", "kernel_size": [3, 3], "trainable": true, "kernel_constraint": null, "kernel_regularizer": {"config": {"l1": 0.0, "l2": 9.999999747378752e-05}, "class_name": "L1L2"}, "kernel_initializer": {"config": {"scale": 2.0, "mode": "fan_in", "seed": null, "distribution": "normal"}, "class_name": "VarianceScaling"}, "padding": "same", "dilation_rate": [1, 1], "bias_regularizer": null, "use_bias": false, "bias_initializer": {"config": {}, "class_name": "Zeros"}, "data_format": "channels_last", "activity_regularizer": null, "name": "conv2d_1", "bias_constraint": null, "strides": [1, 1]}, "class_name": "Conv2D"}, {"inbound_nodes": [[["conv2d_1", 0, 0, {}]]], "name": "batch_normalization_1", "config": {"momentum": 0.99, "beta_regularizer": null, "center": true, "trainable": true, "epsilon": 1.1e-05, "gamma_regularizer": null, "beta_constraint": null, "axis": -1, "scale": true, "gamma_initializer": {"config": {}, "class_name": "Ones"}, "moving_mean_initializer": {"config": {}, "class_name": "Zeros"}, "gamma_constraint": null, "beta_initializer": {"config": {}, "class_name": "Zeros"}, "name": "batch_normalization_1", "moving_variance_initializer": {"config": {}, "class_name": "Ones"}}, "class_name": "BatchNormalization"}, {"inbound_nodes": [[["batch_normalization_1", 0, 0, {}]]], "name": "activation_1", "config": {"activation": "relu", "name": "activation_1", "trainable": true}, "class_name": "Activation"}, {"inbound_nodes": [[["activation_1", 0, 0, {}]]], "name": "conv2d_2", "config": {"filters": 12, "activation": "linear", "kernel_size": [3, 3], "trainable": true, "kernel_constraint": null, "kernel_regularizer": null, "kernel_initializer": {"config": {"scale": 2.0, "mode": "fan_in", "seed": null, "distribution": "normal"}, "class_name": "VarianceScaling"}, "padding": "same", "dilation_rate": [1, 1], "bias_regularizer": null, "use_bias": false, "bias_initializer": {"config": {}, "class_name": "Zeros"}, "data_format": "channels_last", "activity_regularizer": null, "name": "conv2d_2", "bias_constraint": null, "strides": [1, 1]}, "class_name": "Conv2D"}, {"inbound_nodes": [[["conv2d_1", 0, 0, {}], ["conv2d_2", 0, 0, {}]]], "name": "concatenate_1", "config": {"name": "concatenate_1", "trainable": true, "axis": -1}, "class_name": "Concatenate"}, {"inbound_nodes": [[["concatenate_1", 0, 0, {}]]], "name": "batch_normalization_2", "config": {"momentum": 0.99, "beta_regularizer": null, "center": true, "trainable": true, "epsilon": 1.1e-05, "gamma_regularizer": null, "beta_constraint": null, "axis": -1, "scale": true, "gamma_initializer": {"config": {}, "class_name": "Ones"}, "moving_mean_initializer": {"config": {}, "class_name": "Zeros"}, "gamma_constraint": null, "beta_initializer": {"config": {}, "class_name": "Zeros"}, "name": "batch_normalization_2", "moving_variance_initializer": {"config": {}, "class_name": "Ones"}}, "class_name": "BatchNormalization"}, {"inbound_nodes": [[["batch_normalization_2", 0, 0, {}]]], "name": "activation_2", "config": {"activation": "relu", "name": "activation_2", "trainable": true}, "class_name": "Activation"}, {"inbound_nodes": [[["activation_2", 0, 0, {}]]], "name": "conv2d_3", "config": {"filters": 12, "activation": "linear", "kernel_size": [3, 3], "trainable": true, "kernel_constraint": null, "kernel_regularizer": null, "kernel_initializer": {"config": {"scale": 2.0, "mode": "fan_in", "seed": null, "distribution": "normal"}, "class_name": "VarianceScaling"}, "padding": "same", "dilation_rate": [1, 1], "bias_regularizer": null, "use_bias": false, "bias_initializer": {"config": {}, "class_name": "Zeros"}, "data_format": "channels_last", "activity_regularizer": null, "name": "conv2d_3", "bias_constraint": null, "strides": [1, 1]}, "class_name": "Conv2D"}, {"inbound_nodes": [[["concatenate_1", 0, 0, {}], ["conv2d_3", 0, 0, {}]]], "name": "concatenate_2", "config": {"name": "concatenate_2", "trainable": true, "axis": -1}, "class_name": "Concatenate"}, {"inbound_nodes": [[["concatenate_2", 0, 0, {}]]], "name": "batch_normalization_3", "config": {"momentum": 0.99, "beta_regularizer": null, "center": true, "trainable": true, "epsilon": 1.1e-05, "gamma_regularizer": null, "beta_constraint": null, "axis": -1, "scale": true, "gamma_initializer": {"config": {}, "class_name": "Ones"}, "moving_mean_initializer": {"config": {}, "class_name": "Zeros"}, "gamma_constraint": null, "beta_initializer": {"config": {}, "class_name": "Zeros"}, "name": "batch_normalization_3", "moving_variance_initializer": {"config": {}, "class_name": "Ones"}}, "class_name": "BatchNormalization"}, {"inbound_nodes": [[["batch_normalization_3", 0, 0, {}]]], "name": "activation_3", "config": {"activation": "relu", "name": "activation_3", "trainable": true}, "class_name": "Activation"}, {"inbound_nodes": [[["activation_3", 0, 0, {}]]], "name": "conv2d_4", "config": {"filters": 12, "activation": "linear", "kernel_size": [3, 3], "trainable": true, "kernel_constraint": null, "kernel_regularizer": null, "kernel_initializer": {"config": {"scale": 2.0, "mode": "fan_in", "seed": null, "distribution": "normal"}, "class_name": "VarianceScaling"}, "padding": "same", "dilation_rate": [1, 1], "bias_regularizer": null, "use_bias": false, "bias_initializer": {"config": {}, "class_name": "Zeros"}, "data_format": "channels_last", "activity_regularizer": null, "name": "conv2d_4", "bias_constraint": null, "strides": [1, 1]}, "class_name": "Conv2D"}, {"inbound_nodes": [[["concatenate_2", 0, 0, {}], ["conv2d_4", 0, 0, {}]]], "name": "concatenate_3", "config": {"name": "concatenate_3", "trainable": true, "axis": -1}, "class_name": "Concatenate"}, {"inbound_nodes": [[["concatenate_3", 0, 0, {}]]], "name": "batch_normalization_4", "config": {"momentum": 0.99, "beta_regularizer": null, "center": true, "trainable": true, "epsilon": 1.1e-05, "gamma_regularizer": null, "beta_constraint": null, "axis": -1, "scale": true, "gamma_initializer": {"config": {}, "class_name": "Ones"}, "moving_mean_initializer": {"config": {}, "class_name": "Zeros"}, "gamma_constraint": null, "beta_initializer": {"config": {}, "class_name": "Zeros"}, "name": "batch_normalization_4", "moving_variance_initializer": {"config": {}, "class_name": "Ones"}}, "class_name": "BatchNormalization"}, {"inbound_nodes": [[["batch_normalization_4", 0, 0, {}]]], "name": "activation_4", "config": {"activation": "relu", "name": "activation_4", "trainable": true}, "class_name": "Activation"}, {"inbound_nodes": [[["activation_4", 0, 0, {}]]], "name": "conv2d_5", "config": {"filters": 60, "activation": "linear", "kernel_size": [1, 1], "trainable": true, "kernel_constraint": null, "kernel_regularizer": {"config": {"l1": 0.0, "l2": 9.999999747378752e-05}, "class_name": "L1L2"}, "kernel_initializer": {"config": {"scale": 2.0, "mode": "fan_in", "seed": null, "distribution": "normal"}, "class_name": "VarianceScaling"}, "padding": "same", "dilation_rate": [1, 1], "bias_regularizer": null, "use_bias": false, "bias_initializer": {"config": {}, "class_name": "Zeros"}, "data_format": "channels_last", "activity_regularizer": null, "name": "conv2d_5", "bias_constraint": null, "strides": [1, 1]}, "class_name": "Conv2D"}, {"inbound_nodes": [[["conv2d_5", 0, 0, {}]]], "name": "average_pooling2d_1", "config": {"trainable": true, "data_format": "channels_last", "pool_size": [2, 2], "name": "average_pooling2d_1", "padding": "valid", "strides": [2, 2]}, "class_name": "AveragePooling2D"}, {"inbound_nodes": [[["average_pooling2d_1", 0, 0, {}]]], "name": "batch_normalization_5", "config": {"momentum": 0.99, "beta_regularizer": null, "center": true, "trainable": true, "epsilon": 1.1e-05, "gamma_regularizer": null, "beta_constraint": null, "axis": -1, "scale": true, "gamma_initializer": {"config": {}, "class_name": "Ones"}, "moving_mean_initializer": {"config": {}, "class_name": "Zeros"}, "gamma_constraint": null, "beta_initializer": {"config": {}, "class_name": "Zeros"}, "name": "batch_normalization_5", "moving_variance_initializer": {"config": {}, "class_name": "Ones"}}, "class_name": "BatchNormalization"}, {"inbound_nodes": [[["batch_normalization_5", 0, 0, {}]]], "name": "activation_5", "config": {"activation": "relu", "name": "activation_5", "trainable": true}, "class_name": "Activation"}, {"inbound_nodes": [[["activation_5", 0, 0, {}]]], "name": "conv2d_6", "config": {"filters": 12, "activation": "linear", "kernel_size": [3, 3], "trainable": true, "kernel_constraint": null, "kernel_regularizer": null, "kernel_initializer": {"config": {"scale": 2.0, "mode": "fan_in", "seed": null, "distribution": "normal"}, "class_name": "VarianceScaling"}, "padding": "same", "dilation_rate": [1, 1], "bias_regularizer": null, "use_bias": false, "bias_initializer": {"config": {}, "class_name": "Zeros"}, "data_format": "channels_last", "activity_regularizer": null, "name": "conv2d_6", "bias_constraint": null, "strides": [1, 1]}, "class_name": "Conv2D"}, {"inbound_nodes": [[["average_pooling2d_1", 0, 0, {}], ["conv2d_6", 0, 0, {}]]], "name": "concatenate_4", "config": {"name": "concatenate_4", "trainable": true, "axis": -1}, "class_name": "Concatenate"}, {"inbound_nodes": [[["concatenate_4", 0, 0, {}]]], "name": "batch_normalization_6", "config": {"momentum": 0.99, "beta_regularizer": null, "center": true, "trainable": true, "epsilon": 1.1e-05, "gamma_regularizer": null, "beta_constraint": null, "axis": -1, "scale": true, "gamma_initializer": {"config": {}, "class_name": "Ones"}, "moving_mean_initializer": {"config": {}, "class_name": "Zeros"}, "gamma_constraint": null, "beta_initializer": {"config": {}, "class_name": "Zeros"}, "name": "batch_normalization_6", "moving_variance_initializer": {"config": {}, "class_name": "Ones"}}, "class_name": "BatchNormalization"}, {"inbound_nodes": [[["batch_normalization_6", 0, 0, {}]]], "name": "activation_6", "config": {"activation": "relu", "name": "activation_6", "trainable": true}, "class_name": "Activation"}, {"inbound_nodes": [[["activation_6", 0, 0, {}]]], "name": "conv2d_7", "config": {"filters": 12, "activation": "linear", "kernel_size": [3, 3], "trainable": true, "kernel_constraint": null, "kernel_regularizer": null, "kernel_initializer": {"config": {"scale": 2.0, "mode": "fan_in", "seed": null, "distribution": "normal"}, "class_name": "VarianceScaling"}, "padding": "same", "dilation_rate": [1, 1], "bias_regularizer": null, "use_bias": false, "bias_initializer": {"config": {}, "class_name": "Zeros"}, "data_format": "channels_last", "activity_regularizer": null, "name": "conv2d_7", "bias_constraint": null, "strides": [1, 1]}, "class_name": "Conv2D"}, {"inbound_nodes": [[["concatenate_4", 0, 0, {}], ["conv2d_7", 0, 0, {}]]], "name": "concatenate_5", "config": {"name": "concatenate_5", "trainable": true, "axis": -1}, "class_name": "Concatenate"}, {"inbound_nodes": [[["concatenate_5", 0, 0, {}]]], "name": "batch_normalization_7", "config": {"momentum": 0.99, "beta_regularizer": null, "center": true, "trainable": true, "epsilon": 1.1e-05, "gamma_regularizer": null, "beta_constraint": null, "axis": -1, "scale": true, "gamma_initializer": {"config": {}, "class_name": "Ones"}, "moving_mean_initializer": {"config": {}, "class_name": "Zeros"}, "gamma_constraint": null, "beta_initializer": {"config": {}, "class_name": "Zeros"}, "name": "batch_normalization_7", "moving_variance_initializer": {"config": {}, "class_name": "Ones"}}, "class_name": "BatchNormalization"}, {"inbound_nodes": [[["batch_normalization_7", 0, 0, {}]]], "name": "activation_7", "config": {"activation": "relu", "name": "activation_7", "trainable": true}, "class_name": "Activation"}, {"inbound_nodes": [[["activation_7", 0, 0, {}]]], "name": "conv2d_8", "config": {"filters": 12, "activation": "linear", "kernel_size": [3, 3], "trainable": true, "kernel_constraint": null, "kernel_regularizer": null, "kernel_initializer": {"config": {"scale": 2.0, "mode": "fan_in", "seed": null, "distribution": "normal"}, "class_name": "VarianceScaling"}, "padding": "same", "dilation_rate": [1, 1], "bias_regularizer": null, "use_bias": false, "bias_initializer": {"config": {}, "class_name": "Zeros"}, "data_format": "channels_last", "activity_regularizer": null, "name": "conv2d_8", "bias_constraint": null, "strides": [1, 1]}, "class_name": "Conv2D"}, {"inbound_nodes": [[["concatenate_5", 0, 0, {}], ["conv2d_8", 0, 0, {}]]], "name": "concatenate_6", "config": {"name": "concatenate_6", "trainable": true, "axis": -1}, "class_name": "Concatenate"}, {"inbound_nodes": [[["concatenate_6", 0, 0, {}]]], "name": "batch_normalization_8", "config": {"momentum": 0.99, "beta_regularizer": null, "center": true, "trainable": true, "epsilon": 1.1e-05, "gamma_regularizer": null, "beta_constraint": null, "axis": -1, "scale": true, "gamma_initializer": {"config": {}, "class_name": "Ones"}, "moving_mean_initializer": {"config": {}, "class_name": "Zeros"}, "gamma_constraint": null, "beta_initializer": {"config": {}, "class_name": "Zeros"}, "name": "batch_normalization_8", "moving_variance_initializer": {"config": {}, "class_name": "Ones"}}, "class_name": "BatchNormalization"}, {"inbound_nodes": [[["batch_normalization_8", 0, 0, {}]]], "name": "activation_8", "config": {"activation": "relu", "name": "activation_8", "trainable": true}, "class_name": "Activation"}, {"inbound_nodes": [[["activation_8", 0, 0, {}]]], "name": "conv2d_9", "config": {"filters": 96, "activation": "linear", "kernel_size": [1, 1], "trainable": true, "kernel_constraint": null, "kernel_regularizer": {"config": {"l1": 0.0, "l2": 9.999999747378752e-05}, "class_name": "L1L2"}, "kernel_initializer": {"config": {"scale": 2.0, "mode": "fan_in", "seed": null, "distribution": "normal"}, "class_name": "VarianceScaling"}, "padding": "same", "dilation_rate": [1, 1], "bias_regularizer": null, "use_bias": false, "bias_initializer": {"config": {}, "class_name": "Zeros"}, "data_format": "channels_last", "activity_regularizer": null, "name": "conv2d_9", "bias_constraint": null, "strides": [1, 1]}, "class_name": "Conv2D"}, {"inbound_nodes": [[["conv2d_9", 0, 0, {}]]], "name": "average_pooling2d_2", "config": {"trainable": true, "data_format": "channels_last", "pool_size": [2, 2], "name": "average_pooling2d_2", "padding": "valid", "strides": [2, 2]}, "class_name": "AveragePooling2D"}, {"inbound_nodes": [[["average_pooling2d_2", 0, 0, {}]]], "name": "batch_normalization_9", "config": {"momentum": 0.99, "beta_regularizer": null, "center": true, "trainable": true, "epsilon": 1.1e-05, "gamma_regularizer": null, "beta_constraint": null, "axis": -1, "scale": true, "gamma_initializer": {"config": {}, "class_name": "Ones"}, "moving_mean_initializer": {"config": {}, "class_name": "Zeros"}, "gamma_constraint": null, "beta_initializer": {"config": {}, "class_name": "Zeros"}, "name": "batch_normalization_9", "moving_variance_initializer": {"config": {}, "class_name": "Ones"}}, "class_name": "BatchNormalization"}, {"inbound_nodes": [[["batch_normalization_9", 0, 0, {}]]], "name": "activation_9", "config": {"activation": "relu", "name": "activation_9", "trainable": true}, "class_name": "Activation"}, {"inbound_nodes": [[["activation_9", 0, 0, {}]]], "name": "conv2d_10", "config": {"filters": 12, "activation": "linear", "kernel_size": [3, 3], "trainable": true, "kernel_constraint": null, "kernel_regularizer": null, "kernel_initializer": {"config": {"scale": 2.0, "mode": "fan_in", "seed": null, "distribution": "normal"}, "class_name": "VarianceScaling"}, "padding": "same", "dilation_rate": [1, 1], "bias_regularizer": null, "use_bias": false, "bias_initializer": {"config": {}, "class_name": "Zeros"}, "data_format": "channels_last", "activity_regularizer": null, "name": "conv2d_10", "bias_constraint": null, "strides": [1, 1]}, "class_name": "Conv2D"}, {"inbound_nodes": [[["average_pooling2d_2", 0, 0, {}], ["conv2d_10", 0, 0, {}]]], "name": "concatenate_7", "config": {"name": "concatenate_7", "trainable": true, "axis": -1}, "class_name": "Concatenate"}, {"inbound_nodes": [[["concatenate_7", 0, 0, {}]]], "name": "batch_normalization_10", "config": {"momentum": 0.99, "beta_regularizer": null, "center": true, "trainable": true, "epsilon": 1.1e-05, "gamma_regularizer": null, "beta_constraint": null, "axis": -1, "scale": true, "gamma_initializer": {"config": {}, "class_name": "Ones"}, "moving_mean_initializer": {"config": {}, "class_name": "Zeros"}, "gamma_constraint": null, "beta_initializer": {"config": {}, "class_name": "Zeros"}, "name": "batch_normalization_10", "moving_variance_initializer": {"config": {}, "class_name": "Ones"}}, "class_name": "BatchNormalization"}, {"inbound_nodes": [[["batch_normalization_10", 0, 0, {}]]], "name": "activation_10", "config": {"activation": "relu", "name": "activation_10", "trainable": true}, "class_name": "Activation"}, {"inbound_nodes": [[["activation_10", 0, 0, {}]]], "name": "conv2d_11", "config": {"filters": 12, "activation": "linear", "kernel_size": [3, 3], "trainable": true, "kernel_constraint": null, "kernel_regularizer": null, "kernel_initializer": {"config": {"scale": 2.0, "mode": "fan_in", "seed": null, "distribution": "normal"}, "class_name": "VarianceScaling"}, "padding": "same", "dilation_rate": [1, 1], "bias_regularizer": null, "use_bias": false, "bias_initializer": {"config": {}, "class_name": "Zeros"}, "data_format": "channels_last", "activity_regularizer": null, "name": "conv2d_11", "bias_constraint": null, "strides": [1, 1]}, "class_name": "Conv2D"}, {"inbound_nodes": [[["concatenate_7", 0, 0, {}], ["conv2d_11", 0, 0, {}]]], "name": "concatenate_8", "config": {"name": "concatenate_8", "trainable": true, "axis": -1}, "class_name": "Concatenate"}, {"inbound_nodes": [[["concatenate_8", 0, 0, {}]]], "name": "batch_normalization_11", "config": {"momentum": 0.99, "beta_regularizer": null, "center": true, "trainable": true, "epsilon": 1.1e-05, "gamma_regularizer": null, "beta_constraint": null, "axis": -1, "scale": true, "gamma_initializer": {"config": {}, "class_name": "Ones"}, "moving_mean_initializer": {"config": {}, "class_name": "Zeros"}, "gamma_constraint": null, "beta_initializer": {"config": {}, "class_name": "Zeros"}, "name": "batch_normalization_11", "moving_variance_initializer": {"config": {}, "class_name": "Ones"}}, "class_name": "BatchNormalization"}, {"inbound_nodes": [[["batch_normalization_11", 0, 0, {}]]], "name": "activation_11", "config": {"activation": "relu", "name": "activation_11", "trainable": true}, "class_name": "Activation"}, {"inbound_nodes": [[["activation_11", 0, 0, {}]]], "name": "conv2d_12", "config": {"filters": 12, "activation": "linear", "kernel_size": [3, 3], "trainable": true, "kernel_constraint": null, "kernel_regularizer": null, "kernel_initializer": {"config": {"scale": 2.0, "mode": "fan_in", "seed": null, "distribution": "normal"}, "class_name": "VarianceScaling"}, "padding": "same", "dilation_rate": [1, 1], "bias_regularizer": null, "use_bias": false, "bias_initializer": {"config": {}, "class_name": "Zeros"}, "data_format": "channels_last", "activity_regularizer": null, "name": "conv2d_12", "bias_constraint": null, "strides": [1, 1]}, "class_name": "Conv2D"}, {"inbound_nodes": [[["concatenate_8", 0, 0, {}], ["conv2d_12", 0, 0, {}]]], "name": "concatenate_9", "config": {"name": "concatenate_9", "trainable": true, "axis": -1}, "class_name": "Concatenate"}, {"inbound_nodes": [[["concatenate_9", 0, 0, {}]]], "name": "batch_normalization_12", "config": {"momentum": 0.99, "beta_regularizer": null, "center": true, "trainable": true, "epsilon": 1.1e-05, "gamma_regularizer": null, "beta_constraint": null, "axis": -1, "scale": true, "gamma_initializer": {"config": {}, "class_name": "Ones"}, "moving_mean_initializer": {"config": {}, "class_name": "Zeros"}, "gamma_constraint": null, "beta_initializer": {"config": {}, "class_name": "Zeros"}, "name": "batch_normalization_12", "moving_variance_initializer": {"config": {}, "class_name": "Ones"}}, "class_name": "BatchNormalization"}, {"inbound_nodes": [[["batch_normalization_12", 0, 0, {}]]], "name": "activation_12", "config": {"activation": "relu", "name": "activation_12", "trainable": true}, "class_name": "Activation"}, {"inbound_nodes": [[["activation_12", 0, 0, {}]]], "name": "global_average_pooling2d_1", "config": {"name": "global_average_pooling2d_1", "trainable": true, "data_format": "channels_last"}, "class_name": "GlobalAveragePooling2D"}]}, "name": "densenet", "inbound_nodes": [[["input_1", 0, 0, {}]]], "class_name": "Model"}, {"config": {"bias_constraint": null, "activation": "relu", "kernel_initializer": {"config": {"scale": 1.0, "mode": "fan_avg", "seed": null, "distribution": "uniform"}, "class_name": "VarianceScaling"}, "trainable": true, "kernel_constraint": null, "kernel_regularizer": null, "bias_regularizer": null, "use_bias": true, "bias_initializer": {"config": {}, "class_name": "Zeros"}, "units": 128, "activity_regularizer": null, "name": "dense_1"}, "name": "dense_1", "inbound_nodes": [[["densenet", 1, 0, {}]]], "class_name": "Dense"}, {"config": {"name": "dropout_1", "rate": 0.2, "trainable": true}, "name": "dropout_1", "inbound_nodes": [[["dense_1", 0, 0, {}]]], "class_name": "Dropout"}, {"config": {"bias_constraint": null, "activation": "relu", "kernel_initializer": {"config": {"scale": 1.0, "mode": "fan_avg", "seed": null, "distribution": "uniform"}, "class_name": "VarianceScaling"}, "trainable": true, "kernel_constraint": null, "kernel_regularizer": null, "bias_regularizer": null, "use_bias": true, "bias_initializer": {"config": {}, "class_name": "Zeros"}, "units": 32, "activity_regularizer": null, "name": "feat_a"}, "name": "feat_a", "inbound_nodes": [[["dropout_1", 0, 0, {}]]], "class_name": "Dense"}, {"config": {"bias_constraint": null, "activation": "linear", "kernel_initializer": {"config": {"scale": 1.0, "mode": "fan_avg", "seed": null, "distribution": "uniform"}, "class_name": "VarianceScaling"}, "trainable": true, "kernel_constraint": null, "kernel_regularizer": null, "bias_regularizer": null, "use_bias": true, "bias_initializer": {"config": {}, "class_name": "Zeros"}, "units": 1, "activity_regularizer": null, "name": "pred_a"}, "name": "pred_a", "inbound_nodes": [[["feat_a", 0, 0, {}]]], "class_name": "Dense"}]}, "class_name": "Model", "backend": "tensorflow"}