{"backend": "tensorflow", "keras_version": "2.0.6", "config": {"name": "model_1", "output_layers": [["pred_a", 0, 0]], "layers": [{"name": "input_1", "inbound_nodes": [], "config": {"sparse": false, "batch_input_shape": [null, 64, 64, 3], "name": "input_1", "dtype": "float32"}, "class_name": "InputLayer"}, {"name": "densenet", "inbound_nodes": [[["input_1", 0, 0, {}]]], "config": {"name": "densenet", "output_layers": [["global_average_pooling2d_1", 0, 0]], "input_layers": [["input_2", 0, 0]], "layers": [{"name": "input_2", "inbound_nodes": [], "config": {"sparse": false, "batch_input_shape": [null, 64, 64, 3], "name": "input_2", "dtype": "float32"}, "class_name": "InputLayer"}, {"name": "conv2d_1", "inbound_nodes": [[["input_2", 0, 0, {}]]], "config": {"strides": [1, 1], "use_bias": false, "padding": "same", "kernel_constraint": null, "trainable": true, "kernel_initializer": {"config": {"distribution": "normal", "mode": "fan_in", "scale": 2.0, "seed": null}, "class_name": "VarianceScaling"}, "activity_regularizer": null, "bias_regularizer": null, "activation": "linear", "dilation_rate": [1, 1], "kernel_regularizer": {"config": {"l1": 0.0, "l2": 9.999999747378752e-05}, "class_name": "L1L2"}, "name": "conv2d_1", "bias_constraint": null, "kernel_size": [3, 3], "filters": 24, "data_format": "channels_last", "bias_initializer": {"config": {}, "class_name": "Zeros"}}, "class_name": "Conv2D"}, {"name": "batch_normalization_1", "inbound_nodes": [[["conv2d_1", 0, 0, {}]]], "config": {"momentum": 0.99, "beta_regularizer": null, "gamma_regularizer": null, "trainable": true, "moving_variance_initializer": {"config": {}, "class_name": "Ones"}, "gamma_initializer": {"config": {}, "class_name": "Ones"}, "beta_initializer": {"config": {}, "class_name": "Zeros"}, "center": true, "axis": -1, "name": "batch_normalization_1", "beta_constraint": null, "scale": true, "epsilon": 1.1e-05, "gamma_constraint": null, "moving_mean_initializer": {"config": {}, "class_name": "Zeros"}}, "class_name": "BatchNormalization"}, {"name": "activation_1", "inbound_nodes": [[["batch_normalization_1", 0, 0, {}]]], "config": {"name": "activation_1", "trainable": true, "activation": "relu"}, "class_name": "Activation"}, {"name": "conv2d_2", "inbound_nodes": [[["activation_1", 0, 0, {}]]], "config": {"strides": [1, 1], "use_bias": false, "padding": "same", "kernel_constraint": null, "trainable": true, "kernel_initializer": {"config": {"distribution": "normal", "mode": "fan_in", "scale": 2.0, "seed": null}, "class_name": "VarianceScaling"}, "activity_regularizer": null, "bias_regularizer": null, "activation": "linear", "dilation_rate": [1, 1], "kernel_regularizer": null, "name": "conv2d_2", "bias_constraint": null, "kernel_size": [3, 3], "filters": 12, "data_format": "channels_last", "bias_initializer": {"config": {}, "class_name": "Zeros"}}, "class_name": "Conv2D"}, {"name": "concatenate_1", "inbound_nodes": [[["conv2d_1", 0, 0, {}], ["conv2d_2", 0, 0, {}]]], "config": {"name": "concatenate_1", "trainable": true, "axis": -1}, "class_name": "Concatenate"}, {"name": "batch_normalization_2", "inbound_nodes": [[["concatenate_1", 0, 0, {}]]], "config": {"momentum": 0.99, "beta_regularizer": null, "gamma_regularizer": null, "trainable": true, "moving_variance_initializer": {"config": {}, "class_name": "Ones"}, "gamma_initializer": {"config": {}, "class_name": "Ones"}, "beta_initializer": {"config": {}, "class_name": "Zeros"}, "center": true, "axis": -1, "name": "batch_normalization_2", "beta_constraint": null, "scale": true, "epsilon": 1.1e-05, "gamma_constraint": null, "moving_mean_initializer": {"config": {}, "class_name": "Zeros"}}, "class_name": "BatchNormalization"}, {"name": "activation_2", "inbound_nodes": [[["batch_normalization_2", 0, 0, {}]]], "config": {"name": "activation_2", "trainable": true, "activation": "relu"}, "class_name": "Activation"}, {"name": "conv2d_3", "inbound_nodes": [[["activation_2", 0, 0, {}]]], "config": {"strides": [1, 1], "use_bias": false, "padding": "same", "kernel_constraint": null, "trainable": true, "kernel_initializer": {"config": {"distribution": "normal", "mode": "fan_in", "scale": 2.0, "seed": null}, "class_name": "VarianceScaling"}, "activity_regularizer": null, "bias_regularizer": null, "activation": "linear", "dilation_rate": [1, 1], "kernel_regularizer": null, "name": "conv2d_3", "bias_constraint": null, "kernel_size": [3, 3], "filters": 12, "data_format": "channels_last", "bias_initializer": {"config": {}, "class_name": "Zeros"}}, "class_name": "Conv2D"}, {"name": "concatenate_2", "inbound_nodes": [[["concatenate_1", 0, 0, {}], ["conv2d_3", 0, 0, {}]]], "config": {"name": "concatenate_2", "trainable": true, "axis": -1}, "class_name": "Concatenate"}, {"name": "batch_normalization_3", "inbound_nodes": [[["concatenate_2", 0, 0, {}]]], "config": {"momentum": 0.99, "beta_regularizer": null, "gamma_regularizer": null, "trainable": true, "moving_variance_initializer": {"config": {}, "class_name": "Ones"}, "gamma_initializer": {"config": {}, "class_name": "Ones"}, "beta_initializer": {"config": {}, "class_name": "Zeros"}, "center": true, "axis": -1, "name": "batch_normalization_3", "beta_constraint": null, "scale": true, "epsilon": 1.1e-05, "gamma_constraint": null, "moving_mean_initializer": {"config": {}, "class_name": "Zeros"}}, "class_name": "BatchNormalization"}, {"name": "activation_3", "inbound_nodes": [[["batch_normalization_3", 0, 0, {}]]], "config": {"name": "activation_3", "trainable": true, "activation": "relu"}, "class_name": "Activation"}, {"name": "conv2d_4", "inbound_nodes": [[["activation_3", 0, 0, {}]]], "config": {"strides": [1, 1], "use_bias": false, "padding": "same", "kernel_constraint": null, "trainable": true, "kernel_initializer": {"config": {"distribution": "normal", "mode": "fan_in", "scale": 2.0, "seed": null}, "class_name": "VarianceScaling"}, "activity_regularizer": null, "bias_regularizer": null, "activation": "linear", "dilation_rate": [1, 1], "kernel_regularizer": null, "name": "conv2d_4", "bias_constraint": null, "kernel_size": [3, 3], "filters": 12, "data_format": "channels_last", "bias_initializer": {"config": {}, "class_name": "Zeros"}}, "class_name": "Conv2D"}, {"name": "concatenate_3", "inbound_nodes": [[["concatenate_2", 0, 0, {}], ["conv2d_4", 0, 0, {}]]], "config": {"name": "concatenate_3", "trainable": true, "axis": -1}, "class_name": "Concatenate"}, {"name": "batch_normalization_4", "inbound_nodes": [[["concatenate_3", 0, 0, {}]]], "config": {"momentum": 0.99, "beta_regularizer": null, "gamma_regularizer": null, "trainable": true, "moving_variance_initializer": {"config": {}, "class_name": "Ones"}, "gamma_initializer": {"config": {}, "class_name": "Ones"}, "beta_initializer": {"config": {}, "class_name": "Zeros"}, "center": true, "axis": -1, "name": "batch_normalization_4", "beta_constraint": null, "scale": true, "epsilon": 1.1e-05, "gamma_constraint": null, "moving_mean_initializer": {"config": {}, "class_name": "Zeros"}}, "class_name": "BatchNormalization"}, {"name": "activation_4", "inbound_nodes": [[["batch_normalization_4", 0, 0, {}]]], "config": {"name": "activation_4", "trainable": true, "activation": "relu"}, "class_name": "Activation"}, {"name": "conv2d_5", "inbound_nodes": [[["activation_4", 0, 0, {}]]], "config": {"strides": [1, 1], "use_bias": false, "padding": "same", "kernel_constraint": null, "trainable": true, "kernel_initializer": {"config": {"distribution": "normal", "mode": "fan_in", "scale": 2.0, "seed": null}, "class_name": "VarianceScaling"}, "activity_regularizer": null, "bias_regularizer": null, "activation": "linear", "dilation_rate": [1, 1], "kernel_regularizer": null, "name": "conv2d_5", "bias_constraint": null, "kernel_size": [3, 3], "filters": 12, "data_format": "channels_last", "bias_initializer": {"config": {}, "class_name": "Zeros"}}, "class_name": "Conv2D"}, {"name": "concatenate_4", "inbound_nodes": [[["concatenate_3", 0, 0, {}], ["conv2d_5", 0, 0, {}]]], "config": {"name": "concatenate_4", "trainable": true, "axis": -1}, "class_name": "Concatenate"}, {"name": "batch_normalization_5", "inbound_nodes": [[["concatenate_4", 0, 0, {}]]], "config": {"momentum": 0.99, "beta_regularizer": null, "gamma_regularizer": null, "trainable": true, "moving_variance_initializer": {"config": {}, "class_name": "Ones"}, "gamma_initializer": {"config": {}, "class_name": "Ones"}, "beta_initializer": {"config": {}, "class_name": "Zeros"}, "center": true, "axis": -1, "name": "batch_normalization_5", "beta_constraint": null, "scale": true, "epsilon": 1.1e-05, "gamma_constraint": null, "moving_mean_initializer": {"config": {}, "class_name": "Zeros"}}, "class_name": "BatchNormalization"}, {"name": "activation_5", "inbound_nodes": [[["batch_normalization_5", 0, 0, {}]]], "config": {"name": "activation_5", "trainable": true, "activation": "relu"}, "class_name": "Activation"}, {"name": "conv2d_6", "inbound_nodes": [[["activation_5", 0, 0, {}]]], "config": {"strides": [1, 1], "use_bias": false, "padding": "same", "kernel_constraint": null, "trainable": true, "kernel_initializer": {"config": {"distribution": "normal", "mode": "fan_in", "scale": 2.0, "seed": null}, "class_name": "VarianceScaling"}, "activity_regularizer": null, "bias_regularizer": null, "activation": "linear", "dilation_rate": [1, 1], "kernel_regularizer": null, "name": "conv2d_6", "bias_constraint": null, "kernel_size": [3, 3], "filters": 12, "data_format": "channels_last", "bias_initializer": {"config": {}, "class_name": "Zeros"}}, "class_name": "Conv2D"}, {"name": "concatenate_5", "inbound_nodes": [[["concatenate_4", 0, 0, {}], ["conv2d_6", 0, 0, {}]]], "config": {"name": "concatenate_5", "trainable": true, "axis": -1}, "class_name": "Concatenate"}, {"name": "batch_normalization_6", "inbound_nodes": [[["concatenate_5", 0, 0, {}]]], "config": {"momentum": 0.99, "beta_regularizer": null, "gamma_regularizer": null, "trainable": true, "moving_variance_initializer": {"config": {}, "class_name": "Ones"}, "gamma_initializer": {"config": {}, "class_name": "Ones"}, "beta_initializer": {"config": {}, "class_name": "Zeros"}, "center": true, "axis": -1, "name": "batch_normalization_6", "beta_constraint": null, "scale": true, "epsilon": 1.1e-05, "gamma_constraint": null, "moving_mean_initializer": {"config": {}, "class_name": "Zeros"}}, "class_name": "BatchNormalization"}, {"name": "activation_6", "inbound_nodes": [[["batch_normalization_6", 0, 0, {}]]], "config": {"name": "activation_6", "trainable": true, "activation": "relu"}, "class_name": "Activation"}, {"name": "conv2d_7", "inbound_nodes": [[["activation_6", 0, 0, {}]]], "config": {"strides": [1, 1], "use_bias": false, "padding": "same", "kernel_constraint": null, "trainable": true, "kernel_initializer": {"config": {"distribution": "normal", "mode": "fan_in", "scale": 2.0, "seed": null}, "class_name": "VarianceScaling"}, "activity_regularizer": null, "bias_regularizer": null, "activation": "linear", "dilation_rate": [1, 1], "kernel_regularizer": {"config": {"l1": 0.0, "l2": 9.999999747378752e-05}, "class_name": "L1L2"}, "name": "conv2d_7", "bias_constraint": null, "kernel_size": [1, 1], "filters": 84, "data_format": "channels_last", "bias_initializer": {"config": {}, "class_name": "Zeros"}}, "class_name": "Conv2D"}, {"name": "average_pooling2d_1", "inbound_nodes": [[["conv2d_7", 0, 0, {}]]], "config": {"strides": [2, 2], "pool_size": [2, 2], "name": "average_pooling2d_1", "trainable": true, "data_format": "channels_last", "padding": "valid"}, "class_name": "AveragePooling2D"}, {"name": "batch_normalization_7", "inbound_nodes": [[["average_pooling2d_1", 0, 0, {}]]], "config": {"momentum": 0.99, "beta_regularizer": null, "gamma_regularizer": null, "trainable": true, "moving_variance_initializer": {"config": {}, "class_name": "Ones"}, "gamma_initializer": {"config": {}, "class_name": "Ones"}, "beta_initializer": {"config": {}, "class_name": "Zeros"}, "center": true, "axis": -1, "name": "batch_normalization_7", "beta_constraint": null, "scale": true, "epsilon": 1.1e-05, "gamma_constraint": null, "moving_mean_initializer": {"config": {}, "class_name": "Zeros"}}, "class_name": "BatchNormalization"}, {"name": "activation_7", "inbound_nodes": [[["batch_normalization_7", 0, 0, {}]]], "config": {"name": "activation_7", "trainable": true, "activation": "relu"}, "class_name": "Activation"}, {"name": "conv2d_8", "inbound_nodes": [[["activation_7", 0, 0, {}]]], "config": {"strides": [1, 1], "use_bias": false, "padding": "same", "kernel_constraint": null, "trainable": true, "kernel_initializer": {"config": {"distribution": "normal", "mode": "fan_in", "scale": 2.0, "seed": null}, "class_name": "VarianceScaling"}, "activity_regularizer": null, "bias_regularizer": null, "activation": "linear", "dilation_rate": [1, 1], "kernel_regularizer": null, "name": "conv2d_8", "bias_constraint": null, "kernel_size": [3, 3], "filters": 12, "data_format": "channels_last", "bias_initializer": {"config": {}, "class_name": "Zeros"}}, "class_name": "Conv2D"}, {"name": "concatenate_6", "inbound_nodes": [[["average_pooling2d_1", 0, 0, {}], ["conv2d_8", 0, 0, {}]]], "config": {"name": "concatenate_6", "trainable": true, "axis": -1}, "class_name": "Concatenate"}, {"name": "batch_normalization_8", "inbound_nodes": [[["concatenate_6", 0, 0, {}]]], "config": {"momentum": 0.99, "beta_regularizer": null, "gamma_regularizer": null, "trainable": true, "moving_variance_initializer": {"config": {}, "class_name": "Ones"}, "gamma_initializer": {"config": {}, "class_name": "Ones"}, "beta_initializer": {"config": {}, "class_name": "Zeros"}, "center": true, "axis": -1, "name": "batch_normalization_8", "beta_constraint": null, "scale": true, "epsilon": 1.1e-05, "gamma_constraint": null, "moving_mean_initializer": {"config": {}, "class_name": "Zeros"}}, "class_name": "BatchNormalization"}, {"name": "activation_8", "inbound_nodes": [[["batch_normalization_8", 0, 0, {}]]], "config": {"name": "activation_8", "trainable": true, "activation": "relu"}, "class_name": "Activation"}, {"name": "conv2d_9", "inbound_nodes": [[["activation_8", 0, 0, {}]]], "config": {"strides": [1, 1], "use_bias": false, "padding": "same", "kernel_constraint": null, "trainable": true, "kernel_initializer": {"config": {"distribution": "normal", "mode": "fan_in", "scale": 2.0, "seed": null}, "class_name": "VarianceScaling"}, "activity_regularizer": null, "bias_regularizer": null, "activation": "linear", "dilation_rate": [1, 1], "kernel_regularizer": null, "name": "conv2d_9", "bias_constraint": null, "kernel_size": [3, 3], "filters": 12, "data_format": "channels_last", "bias_initializer": {"config": {}, "class_name": "Zeros"}}, "class_name": "Conv2D"}, {"name": "concatenate_7", "inbound_nodes": [[["concatenate_6", 0, 0, {}], ["conv2d_9", 0, 0, {}]]], "config": {"name": "concatenate_7", "trainable": true, "axis": -1}, "class_name": "Concatenate"}, {"name": "batch_normalization_9", "inbound_nodes": [[["concatenate_7", 0, 0, {}]]], "config": {"momentum": 0.99, "beta_regularizer": null, "gamma_regularizer": null, "trainable": true, "moving_variance_initializer": {"config": {}, "class_name": "Ones"}, "gamma_initializer": {"config": {}, "class_name": "Ones"}, "beta_initializer": {"config": {}, "class_name": "Zeros"}, "center": true, "axis": -1, "name": "batch_normalization_9", "beta_constraint": null, "scale": true, "epsilon": 1.1e-05, "gamma_constraint": null, "moving_mean_initializer": {"config": {}, "class_name": "Zeros"}}, "class_name": "BatchNormalization"}, {"name": "activation_9", "inbound_nodes": [[["batch_normalization_9", 0, 0, {}]]], "config": {"name": "activation_9", "trainable": true, "activation": "relu"}, "class_name": "Activation"}, {"name": "conv2d_10", "inbound_nodes": [[["activation_9", 0, 0, {}]]], "config": {"strides": [1, 1], "use_bias": false, "padding": "same", "kernel_constraint": null, "trainable": true, "kernel_initializer": {"config": {"distribution": "normal", "mode": "fan_in", "scale": 2.0, "seed": null}, "class_name": "VarianceScaling"}, "activity_regularizer": null, "bias_regularizer": null, "activation": "linear", "dilation_rate": [1, 1], "kernel_regularizer": null, "name": "conv2d_10", "bias_constraint": null, "kernel_size": [3, 3], "filters": 12, "data_format": "channels_last", "bias_initializer": {"config": {}, "class_name": "Zeros"}}, "class_name": "Conv2D"}, {"name": "concatenate_8", "inbound_nodes": [[["concatenate_7", 0, 0, {}], ["conv2d_10", 0, 0, {}]]], "config": {"name": "concatenate_8", "trainable": true, "axis": -1}, "class_name": "Concatenate"}, {"name": "batch_normalization_10", "inbound_nodes": [[["concatenate_8", 0, 0, {}]]], "config": {"momentum": 0.99, "beta_regularizer": null, "gamma_regularizer": null, "trainable": true, "moving_variance_initializer": {"config": {}, "class_name": "Ones"}, "gamma_initializer": {"config": {}, "class_name": "Ones"}, "beta_initializer": {"config": {}, "class_name": "Zeros"}, "center": true, "axis": -1, "name": "batch_normalization_10", "beta_constraint": null, "scale": true, "epsilon": 1.1e-05, "gamma_constraint": null, "moving_mean_initializer": {"config": {}, "class_name": "Zeros"}}, "class_name": "BatchNormalization"}, {"name": "activation_10", "inbound_nodes": [[["batch_normalization_10", 0, 0, {}]]], "config": {"name": "activation_10", "trainable": true, "activation": "relu"}, "class_name": "Activation"}, {"name": "conv2d_11", "inbound_nodes": [[["activation_10", 0, 0, {}]]], "config": {"strides": [1, 1], "use_bias": false, "padding": "same", "kernel_constraint": null, "trainable": true, "kernel_initializer": {"config": {"distribution": "normal", "mode": "fan_in", "scale": 2.0, "seed": null}, "class_name": "VarianceScaling"}, "activity_regularizer": null, "bias_regularizer": null, "activation": "linear", "dilation_rate": [1, 1], "kernel_regularizer": null, "name": "conv2d_11", "bias_constraint": null, "kernel_size": [3, 3], "filters": 12, "data_format": "channels_last", "bias_initializer": {"config": {}, "class_name": "Zeros"}}, "class_name": "Conv2D"}, {"name": "concatenate_9", "inbound_nodes": [[["concatenate_8", 0, 0, {}], ["conv2d_11", 0, 0, {}]]], "config": {"name": "concatenate_9", "trainable": true, "axis": -1}, "class_name": "Concatenate"}, {"name": "batch_normalization_11", "inbound_nodes": [[["concatenate_9", 0, 0, {}]]], "config": {"momentum": 0.99, "beta_regularizer": null, "gamma_regularizer": null, "trainable": true, "moving_variance_initializer": {"config": {}, "class_name": "Ones"}, "gamma_initializer": {"config": {}, "class_name": "Ones"}, "beta_initializer": {"config": {}, "class_name": "Zeros"}, "center": true, "axis": -1, "name": "batch_normalization_11", "beta_constraint": null, "scale": true, "epsilon": 1.1e-05, "gamma_constraint": null, "moving_mean_initializer": {"config": {}, "class_name": "Zeros"}}, "class_name": "BatchNormalization"}, {"name": "activation_11", "inbound_nodes": [[["batch_normalization_11", 0, 0, {}]]], "config": {"name": "activation_11", "trainable": true, "activation": "relu"}, "class_name": "Activation"}, {"name": "conv2d_12", "inbound_nodes": [[["activation_11", 0, 0, {}]]], "config": {"strides": [1, 1], "use_bias": false, "padding": "same", "kernel_constraint": null, "trainable": true, "kernel_initializer": {"config": {"distribution": "normal", "mode": "fan_in", "scale": 2.0, "seed": null}, "class_name": "VarianceScaling"}, "activity_regularizer": null, "bias_regularizer": null, "activation": "linear", "dilation_rate": [1, 1], "kernel_regularizer": null, "name": "conv2d_12", "bias_constraint": null, "kernel_size": [3, 3], "filters": 12, "data_format": "channels_last", "bias_initializer": {"config": {}, "class_name": "Zeros"}}, "class_name": "Conv2D"}, {"name": "concatenate_10", "inbound_nodes": [[["concatenate_9", 0, 0, {}], ["conv2d_12", 0, 0, {}]]], "config": {"name": "concatenate_10", "trainable": true, "axis": -1}, "class_name": "Concatenate"}, {"name": "batch_normalization_12", "inbound_nodes": [[["concatenate_10", 0, 0, {}]]], "config": {"momentum": 0.99, "beta_regularizer": null, "gamma_regularizer": null, "trainable": true, "moving_variance_initializer": {"config": {}, "class_name": "Ones"}, "gamma_initializer": {"config": {}, "class_name": "Ones"}, "beta_initializer": {"config": {}, "class_name": "Zeros"}, "center": true, "axis": -1, "name": "batch_normalization_12", "beta_constraint": null, "scale": true, "epsilon": 1.1e-05, "gamma_constraint": null, "moving_mean_initializer": {"config": {}, "class_name": "Zeros"}}, "class_name": "BatchNormalization"}, {"name": "activation_12", "inbound_nodes": [[["batch_normalization_12", 0, 0, {}]]], "config": {"name": "activation_12", "trainable": true, "activation": "relu"}, "class_name": "Activation"}, {"name": "conv2d_13", "inbound_nodes": [[["activation_12", 0, 0, {}]]], "config": {"strides": [1, 1], "use_bias": false, "padding": "same", "kernel_constraint": null, "trainable": true, "kernel_initializer": {"config": {"distribution": "normal", "mode": "fan_in", "scale": 2.0, "seed": null}, "class_name": "VarianceScaling"}, "activity_regularizer": null, "bias_regularizer": null, "activation": "linear", "dilation_rate": [1, 1], "kernel_regularizer": {"config": {"l1": 0.0, "l2": 9.999999747378752e-05}, "class_name": "L1L2"}, "name": "conv2d_13", "bias_constraint": null, "kernel_size": [1, 1], "filters": 144, "data_format": "channels_last", "bias_initializer": {"config": {}, "class_name": "Zeros"}}, "class_name": "Conv2D"}, {"name": "average_pooling2d_2", "inbound_nodes": [[["conv2d_13", 0, 0, {}]]], "config": {"strides": [2, 2], "pool_size": [2, 2], "name": "average_pooling2d_2", "trainable": true, "data_format": "channels_last", "padding": "valid"}, "class_name": "AveragePooling2D"}, {"name": "batch_normalization_13", "inbound_nodes": [[["average_pooling2d_2", 0, 0, {}]]], "config": {"momentum": 0.99, "beta_regularizer": null, "gamma_regularizer": null, "trainable": true, "moving_variance_initializer": {"config": {}, "class_name": "Ones"}, "gamma_initializer": {"config": {}, "class_name": "Ones"}, "beta_initializer": {"config": {}, "class_name": "Zeros"}, "center": true, "axis": -1, "name": "batch_normalization_13", "beta_constraint": null, "scale": true, "epsilon": 1.1e-05, "gamma_constraint": null, "moving_mean_initializer": {"config": {}, "class_name": "Zeros"}}, "class_name": "BatchNormalization"}, {"name": "activation_13", "inbound_nodes": [[["batch_normalization_13", 0, 0, {}]]], "config": {"name": "activation_13", "trainable": true, "activation": "relu"}, "class_name": "Activation"}, {"name": "conv2d_14", "inbound_nodes": [[["activation_13", 0, 0, {}]]], "config": {"strides": [1, 1], "use_bias": false, "padding": "same", "kernel_constraint": null, "trainable": true, "kernel_initializer": {"config": {"distribution": "normal", "mode": "fan_in", "scale": 2.0, "seed": null}, "class_name": "VarianceScaling"}, "activity_regularizer": null, "bias_regularizer": null, "activation": "linear", "dilation_rate": [1, 1], "kernel_regularizer": null, "name": "conv2d_14", "bias_constraint": null, "kernel_size": [3, 3], "filters": 12, "data_format": "channels_last", "bias_initializer": {"config": {}, "class_name": "Zeros"}}, "class_name": "Conv2D"}, {"name": "concatenate_11", "inbound_nodes": [[["average_pooling2d_2", 0, 0, {}], ["conv2d_14", 0, 0, {}]]], "config": {"name": "concatenate_11", "trainable": true, "axis": -1}, "class_name": "Concatenate"}, {"name": "batch_normalization_14", "inbound_nodes": [[["concatenate_11", 0, 0, {}]]], "config": {"momentum": 0.99, "beta_regularizer": null, "gamma_regularizer": null, "trainable": true, "moving_variance_initializer": {"config": {}, "class_name": "Ones"}, "gamma_initializer": {"config": {}, "class_name": "Ones"}, "beta_initializer": {"config": {}, "class_name": "Zeros"}, "center": true, "axis": -1, "name": "batch_normalization_14", "beta_constraint": null, "scale": true, "epsilon": 1.1e-05, "gamma_constraint": null, "moving_mean_initializer": {"config": {}, "class_name": "Zeros"}}, "class_name": "BatchNormalization"}, {"name": "activation_14", "inbound_nodes": [[["batch_normalization_14", 0, 0, {}]]], "config": {"name": "activation_14", "trainable": true, "activation": "relu"}, "class_name": "Activation"}, {"name": "conv2d_15", "inbound_nodes": [[["activation_14", 0, 0, {}]]], "config": {"strides": [1, 1], "use_bias": false, "padding": "same", "kernel_constraint": null, "trainable": true, "kernel_initializer": {"config": {"distribution": "normal", "mode": "fan_in", "scale": 2.0, "seed": null}, "class_name": "VarianceScaling"}, "activity_regularizer": null, "bias_regularizer": null, "activation": "linear", "dilation_rate": [1, 1], "kernel_regularizer": null, "name": "conv2d_15", "bias_constraint": null, "kernel_size": [3, 3], "filters": 12, "data_format": "channels_last", "bias_initializer": {"config": {}, "class_name": "Zeros"}}, "class_name": "Conv2D"}, {"name": "concatenate_12", "inbound_nodes": [[["concatenate_11", 0, 0, {}], ["conv2d_15", 0, 0, {}]]], "config": {"name": "concatenate_12", "trainable": true, "axis": -1}, "class_name": "Concatenate"}, {"name": "batch_normalization_15", "inbound_nodes": [[["concatenate_12", 0, 0, {}]]], "config": {"momentum": 0.99, "beta_regularizer": null, "gamma_regularizer": null, "trainable": true, "moving_variance_initializer": {"config": {}, "class_name": "Ones"}, "gamma_initializer": {"config": {}, "class_name": "Ones"}, "beta_initializer": {"config": {}, "class_name": "Zeros"}, "center": true, "axis": -1, "name": "batch_normalization_15", "beta_constraint": null, "scale": true, "epsilon": 1.1e-05, "gamma_constraint": null, "moving_mean_initializer": {"config": {}, "class_name": "Zeros"}}, "class_name": "BatchNormalization"}, {"name": "activation_15", "inbound_nodes": [[["batch_normalization_15", 0, 0, {}]]], "config": {"name": "activation_15", "trainable": true, "activation": "relu"}, "class_name": "Activation"}, {"name": "conv2d_16", "inbound_nodes": [[["activation_15", 0, 0, {}]]], "config": {"strides": [1, 1], "use_bias": false, "padding": "same", "kernel_constraint": null, "trainable": true, "kernel_initializer": {"config": {"distribution": "normal", "mode": "fan_in", "scale": 2.0, "seed": null}, "class_name": "VarianceScaling"}, "activity_regularizer": null, "bias_regularizer": null, "activation": "linear", "dilation_rate": [1, 1], "kernel_regularizer": null, "name": "conv2d_16", "bias_constraint": null, "kernel_size": [3, 3], "filters": 12, "data_format": "channels_last", "bias_initializer": {"config": {}, "class_name": "Zeros"}}, "class_name": "Conv2D"}, {"name": "concatenate_13", "inbound_nodes": [[["concatenate_12", 0, 0, {}], ["conv2d_16", 0, 0, {}]]], "config": {"name": "concatenate_13", "trainable": true, "axis": -1}, "class_name": "Concatenate"}, {"name": "batch_normalization_16", "inbound_nodes": [[["concatenate_13", 0, 0, {}]]], "config": {"momentum": 0.99, "beta_regularizer": null, "gamma_regularizer": null, "trainable": true, "moving_variance_initializer": {"config": {}, "class_name": "Ones"}, "gamma_initializer": {"config": {}, "class_name": "Ones"}, "beta_initializer": {"config": {}, "class_name": "Zeros"}, "center": true, "axis": -1, "name": "batch_normalization_16", "beta_constraint": null, "scale": true, "epsilon": 1.1e-05, "gamma_constraint": null, "moving_mean_initializer": {"config": {}, "class_name": "Zeros"}}, "class_name": "BatchNormalization"}, {"name": "activation_16", "inbound_nodes": [[["batch_normalization_16", 0, 0, {}]]], "config": {"name": "activation_16", "trainable": true, "activation": "relu"}, "class_name": "Activation"}, {"name": "conv2d_17", "inbound_nodes": [[["activation_16", 0, 0, {}]]], "config": {"strides": [1, 1], "use_bias": false, "padding": "same", "kernel_constraint": null, "trainable": true, "kernel_initializer": {"config": {"distribution": "normal", "mode": "fan_in", "scale": 2.0, "seed": null}, "class_name": "VarianceScaling"}, "activity_regularizer": null, "bias_regularizer": null, "activation": "linear", "dilation_rate": [1, 1], "kernel_regularizer": null, "name": "conv2d_17", "bias_constraint": null, "kernel_size": [3, 3], "filters": 12, "data_format": "channels_last", "bias_initializer": {"config": {}, "class_name": "Zeros"}}, "class_name": "Conv2D"}, {"name": "concatenate_14", "inbound_nodes": [[["concatenate_13", 0, 0, {}], ["conv2d_17", 0, 0, {}]]], "config": {"name": "concatenate_14", "trainable": true, "axis": -1}, "class_name": "Concatenate"}, {"name": "batch_normalization_17", "inbound_nodes": [[["concatenate_14", 0, 0, {}]]], "config": {"momentum": 0.99, "beta_regularizer": null, "gamma_regularizer": null, "trainable": true, "moving_variance_initializer": {"config": {}, "class_name": "Ones"}, "gamma_initializer": {"config": {}, "class_name": "Ones"}, "beta_initializer": {"config": {}, "class_name": "Zeros"}, "center": true, "axis": -1, "name": "batch_normalization_17", "beta_constraint": null, "scale": true, "epsilon": 1.1e-05, "gamma_constraint": null, "moving_mean_initializer": {"config": {}, "class_name": "Zeros"}}, "class_name": "BatchNormalization"}, {"name": "activation_17", "inbound_nodes": [[["batch_normalization_17", 0, 0, {}]]], "config": {"name": "activation_17", "trainable": true, "activation": "relu"}, "class_name": "Activation"}, {"name": "conv2d_18", "inbound_nodes": [[["activation_17", 0, 0, {}]]], "config": {"strides": [1, 1], "use_bias": false, "padding": "same", "kernel_constraint": null, "trainable": true, "kernel_initializer": {"config": {"distribution": "normal", "mode": "fan_in", "scale": 2.0, "seed": null}, "class_name": "VarianceScaling"}, "activity_regularizer": null, "bias_regularizer": null, "activation": "linear", "dilation_rate": [1, 1], "kernel_regularizer": null, "name": "conv2d_18", "bias_constraint": null, "kernel_size": [3, 3], "filters": 12, "data_format": "channels_last", "bias_initializer": {"config": {}, "class_name": "Zeros"}}, "class_name": "Conv2D"}, {"name": "concatenate_15", "inbound_nodes": [[["concatenate_14", 0, 0, {}], ["conv2d_18", 0, 0, {}]]], "config": {"name": "concatenate_15", "trainable": true, "axis": -1}, "class_name": "Concatenate"}, {"name": "batch_normalization_18", "inbound_nodes": [[["concatenate_15", 0, 0, {}]]], "config": {"momentum": 0.99, "beta_regularizer": null, "gamma_regularizer": null, "trainable": true, "moving_variance_initializer": {"config": {}, "class_name": "Ones"}, "gamma_initializer": {"config": {}, "class_name": "Ones"}, "beta_initializer": {"config": {}, "class_name": "Zeros"}, "center": true, "axis": -1, "name": "batch_normalization_18", "beta_constraint": null, "scale": true, "epsilon": 1.1e-05, "gamma_constraint": null, "moving_mean_initializer": {"config": {}, "class_name": "Zeros"}}, "class_name": "BatchNormalization"}, {"name": "activation_18", "inbound_nodes": [[["batch_normalization_18", 0, 0, {}]]], "config": {"name": "activation_18", "trainable": true, "activation": "relu"}, "class_name": "Activation"}, {"name": "global_average_pooling2d_1", "inbound_nodes": [[["activation_18", 0, 0, {}]]], "config": {"name": "global_average_pooling2d_1", "trainable": true, "data_format": "channels_last"}, "class_name": "GlobalAveragePooling2D"}]}, "class_name": "Model"}, {"name": "dense_1", "inbound_nodes": [[["densenet", 1, 0, {}]]], "config": {"use_bias": true, "kernel_constraint": null, "trainable": true, "kernel_initializer": {"config": {"distribution": "uniform", "mode": "fan_avg", "scale": 1.0, "seed": null}, "class_name": "VarianceScaling"}, "units": 128, "bias_regularizer": null, "activation": "relu", "kernel_regularizer": null, "name": "dense_1", "bias_constraint": null, "activity_regularizer": null, "bias_initializer": {"config": {}, "class_name": "Zeros"}}, "class_name": "Dense"}, {"name": "dropout_1", "inbound_nodes": [[["dense_1", 0, 0, {}]]], "config": {"name": "dropout_1", "trainable": true, "rate": 0.2}, "class_name": "Dropout"}, {"name": "feat_a", "inbound_nodes": [[["dropout_1", 0, 0, {}]]], "config": {"use_bias": true, "kernel_constraint": null, "trainable": true, "kernel_initializer": {"config": {"distribution": "uniform", "mode": "fan_avg", "scale": 1.0, "seed": null}, "class_name": "VarianceScaling"}, "units": 32, "bias_regularizer": null, "activation": "relu", "kernel_regularizer": null, "name": "feat_a", "bias_constraint": null, "activity_regularizer": null, "bias_initializer": {"config": {}, "class_name": "Zeros"}}, "class_name": "Dense"}, {"name": "pred_a", "inbound_nodes": [[["feat_a", 0, 0, {}]]], "config": {"use_bias": true, "kernel_constraint": null, "trainable": true, "kernel_initializer": {"config": {"distribution": "uniform", "mode": "fan_avg", "scale": 1.0, "seed": null}, "class_name": "VarianceScaling"}, "units": 1, "bias_regularizer": null, "activation": "linear", "kernel_regularizer": null, "name": "pred_a", "bias_constraint": null, "activity_regularizer": null, "bias_initializer": {"config": {}, "class_name": "Zeros"}}, "class_name": "Dense"}], "input_layers": [["input_1", 0, 0]]}, "class_name": "Model"}