{"keras_version": "2.0.6", "config": {"name": "model_1", "layers": [{"name": "input_1", "config": {"batch_input_shape": [null, 64, 64, 3], "name": "input_1", "dtype": "float32", "sparse": false}, "class_name": "InputLayer", "inbound_nodes": []}, {"name": "mobilenet_0.50_64", "config": {"name": "mobilenet_0.50_64", "output_layers": [["conv_pw_13_relu", 0, 0]], "layers": [{"name": "input_2", "config": {"batch_input_shape": [null, 64, 64, 3], "name": "input_2", "dtype": "float32", "sparse": false}, "class_name": "InputLayer", "inbound_nodes": []}, {"name": "conv1", "config": {"trainable": true, "bias_regularizer": null, "kernel_constraint": null, "padding": "same", "name": "conv1", "kernel_size": [3, 3], "filters": 16, "use_bias": false, "bias_constraint": null, "kernel_regularizer": null, "activation": "linear", "dilation_rate": [1, 1], "activity_regularizer": null, "data_format": "channels_last", "strides": [2, 2], "bias_initializer": {"config": {}, "class_name": "Zeros"}, "kernel_initializer": {"config": {"scale": 1.0, "distribution": "uniform", "seed": null, "mode": "fan_avg"}, "class_name": "VarianceScaling"}}, "class_name": "Conv2D", "inbound_nodes": [[["input_2", 0, 0, {}]]]}, {"name": "conv1_bn", "config": {"trainable": true, "beta_initializer": {"config": {}, "class_name": "Zeros"}, "gamma_constraint": null, "beta_constraint": null, "gamma_initializer": {"config": {}, "class_name": "Ones"}, "name": "conv1_bn", "moving_mean_initializer": {"config": {}, "class_name": "Zeros"}, "epsilon": 0.001, "momentum": 0.99, "moving_variance_initializer": {"config": {}, "class_name": "Ones"}, "axis": -1, "scale": true, "center": true, "beta_regularizer": null, "gamma_regularizer": null}, "class_name": "BatchNormalization", "inbound_nodes": [[["conv1", 0, 0, {}]]]}, {"name": "conv1_relu", "config": {"name": "conv1_relu", "trainable": true, "activation": "relu6"}, "class_name": "Activation", "inbound_nodes": [[["conv1_bn", 0, 0, {}]]]}, {"name": "conv_dw_1", "config": {"bias_regularizer": null, "trainable": true, "use_bias": false, "padding": "same", "name": "conv_dw_1", "kernel_size": [3, 3], "depthwise_initializer": {"config": {"scale": 1.0, "distribution": "uniform", "seed": null, "mode": "fan_avg"}, "class_name": "VarianceScaling"}, "depthwise_constraint": null, "data_format": "channels_last", "bias_constraint": null, "activation": "linear", "depth_multiplier": 1, "activity_regularizer": null, "dilation_rate": [1, 1], "depthwise_regularizer": null, "strides": [1, 1], "bias_initializer": {"config": {}, "class_name": "Zeros"}}, "class_name": "DepthwiseConv2D", "inbound_nodes": [[["conv1_relu", 0, 0, {}]]]}, {"name": "conv_dw_1_bn", "config": {"trainable": true, "beta_initializer": {"config": {}, "class_name": "Zeros"}, "gamma_constraint": null, "beta_constraint": null, "gamma_initializer": {"config": {}, "class_name": "Ones"}, "name": "conv_dw_1_bn", "moving_mean_initializer": {"config": {}, "class_name": "Zeros"}, "epsilon": 0.001, "momentum": 0.99, "moving_variance_initializer": {"config": {}, "class_name": "Ones"}, "axis": -1, "scale": true, "center": true, "beta_regularizer": null, "gamma_regularizer": null}, "class_name": "BatchNormalization", "inbound_nodes": [[["conv_dw_1", 0, 0, {}]]]}, {"name": "conv_dw_1_relu", "config": {"name": "conv_dw_1_relu", "trainable": true, "activation": "relu6"}, "class_name": "Activation", "inbound_nodes": [[["conv_dw_1_bn", 0, 0, {}]]]}, {"name": "conv_pw_1", "config": {"trainable": true, "bias_regularizer": null, "kernel_constraint": null, "padding": "same", "name": "conv_pw_1", "kernel_size": [1, 1], "filters": 32, "use_bias": false, "bias_constraint": null, "kernel_regularizer": null, "activation": "linear", "dilation_rate": [1, 1], "activity_regularizer": null, "data_format": "channels_last", "strides": [1, 1], "bias_initializer": {"config": {}, "class_name": "Zeros"}, "kernel_initializer": {"config": {"scale": 1.0, "distribution": "uniform", "seed": null, "mode": "fan_avg"}, "class_name": "VarianceScaling"}}, "class_name": "Conv2D", "inbound_nodes": [[["conv_dw_1_relu", 0, 0, {}]]]}, {"name": "conv_pw_1_bn", "config": {"trainable": true, "beta_initializer": {"config": {}, "class_name": "Zeros"}, "gamma_constraint": null, "beta_constraint": null, "gamma_initializer": {"config": {}, "class_name": "Ones"}, "name": "conv_pw_1_bn", "moving_mean_initializer": {"config": {}, "class_name": "Zeros"}, "epsilon": 0.001, "momentum": 0.99, "moving_variance_initializer": {"config": {}, "class_name": "Ones"}, "axis": -1, "scale": true, "center": true, "beta_regularizer": null, "gamma_regularizer": null}, "class_name": "BatchNormalization", "inbound_nodes": [[["conv_pw_1", 0, 0, {}]]]}, {"name": "conv_pw_1_relu", "config": {"name": "conv_pw_1_relu", "trainable": true, "activation": "relu6"}, "class_name": "Activation", "inbound_nodes": [[["conv_pw_1_bn", 0, 0, {}]]]}, {"name": "conv_dw_2", "config": {"bias_regularizer": null, "trainable": true, "use_bias": false, "padding": "same", "name": "conv_dw_2", "kernel_size": [3, 3], "depthwise_initializer": {"config": {"scale": 1.0, "distribution": "uniform", "seed": null, "mode": "fan_avg"}, "class_name": "VarianceScaling"}, "depthwise_constraint": null, "data_format": "channels_last", "bias_constraint": null, "activation": "linear", "depth_multiplier": 1, "activity_regularizer": null, "dilation_rate": [1, 1], "depthwise_regularizer": null, "strides": [2, 2], "bias_initializer": {"config": {}, "class_name": "Zeros"}}, "class_name": "DepthwiseConv2D", "inbound_nodes": [[["conv_pw_1_relu", 0, 0, {}]]]}, {"name": "conv_dw_2_bn", "config": {"trainable": true, "beta_initializer": {"config": {}, "class_name": "Zeros"}, "gamma_constraint": null, "beta_constraint": null, "gamma_initializer": {"config": {}, "class_name": "Ones"}, "name": "conv_dw_2_bn", "moving_mean_initializer": {"config": {}, "class_name": "Zeros"}, "epsilon": 0.001, "momentum": 0.99, "moving_variance_initializer": {"config": {}, "class_name": "Ones"}, "axis": -1, "scale": true, "center": true, "beta_regularizer": null, "gamma_regularizer": null}, "class_name": "BatchNormalization", "inbound_nodes": [[["conv_dw_2", 0, 0, {}]]]}, {"name": "conv_dw_2_relu", "config": {"name": "conv_dw_2_relu", "trainable": true, "activation": "relu6"}, "class_name": "Activation", "inbound_nodes": [[["conv_dw_2_bn", 0, 0, {}]]]}, {"name": "conv_pw_2", "config": {"trainable": true, "bias_regularizer": null, "kernel_constraint": null, "padding": "same", "name": "conv_pw_2", "kernel_size": [1, 1], "filters": 64, "use_bias": false, "bias_constraint": null, "kernel_regularizer": null, "activation": "linear", "dilation_rate": [1, 1], "activity_regularizer": null, "data_format": "channels_last", "strides": [1, 1], "bias_initializer": {"config": {}, "class_name": "Zeros"}, "kernel_initializer": {"config": {"scale": 1.0, "distribution": "uniform", "seed": null, "mode": "fan_avg"}, "class_name": "VarianceScaling"}}, "class_name": "Conv2D", "inbound_nodes": [[["conv_dw_2_relu", 0, 0, {}]]]}, {"name": "conv_pw_2_bn", "config": {"trainable": true, "beta_initializer": {"config": {}, "class_name": "Zeros"}, "gamma_constraint": null, "beta_constraint": null, "gamma_initializer": {"config": {}, "class_name": "Ones"}, "name": "conv_pw_2_bn", "moving_mean_initializer": {"config": {}, "class_name": "Zeros"}, "epsilon": 0.001, "momentum": 0.99, "moving_variance_initializer": {"config": {}, "class_name": "Ones"}, "axis": -1, "scale": true, "center": true, "beta_regularizer": null, "gamma_regularizer": null}, "class_name": "BatchNormalization", "inbound_nodes": [[["conv_pw_2", 0, 0, {}]]]}, {"name": "conv_pw_2_relu", "config": {"name": "conv_pw_2_relu", "trainable": true, "activation": "relu6"}, "class_name": "Activation", "inbound_nodes": [[["conv_pw_2_bn", 0, 0, {}]]]}, {"name": "conv_dw_3", "config": {"bias_regularizer": null, "trainable": true, "use_bias": false, "padding": "same", "name": "conv_dw_3", "kernel_size": [3, 3], "depthwise_initializer": {"config": {"scale": 1.0, "distribution": "uniform", "seed": null, "mode": "fan_avg"}, "class_name": "VarianceScaling"}, "depthwise_constraint": null, "data_format": "channels_last", "bias_constraint": null, "activation": "linear", "depth_multiplier": 1, "activity_regularizer": null, "dilation_rate": [1, 1], "depthwise_regularizer": null, "strides": [1, 1], "bias_initializer": {"config": {}, "class_name": "Zeros"}}, "class_name": "DepthwiseConv2D", "inbound_nodes": [[["conv_pw_2_relu", 0, 0, {}]]]}, {"name": "conv_dw_3_bn", "config": {"trainable": true, "beta_initializer": {"config": {}, "class_name": "Zeros"}, "gamma_constraint": null, "beta_constraint": null, "gamma_initializer": {"config": {}, "class_name": "Ones"}, "name": "conv_dw_3_bn", "moving_mean_initializer": {"config": {}, "class_name": "Zeros"}, "epsilon": 0.001, "momentum": 0.99, "moving_variance_initializer": {"config": {}, "class_name": "Ones"}, "axis": -1, "scale": true, "center": true, "beta_regularizer": null, "gamma_regularizer": null}, "class_name": "BatchNormalization", "inbound_nodes": [[["conv_dw_3", 0, 0, {}]]]}, {"name": "conv_dw_3_relu", "config": {"name": "conv_dw_3_relu", "trainable": true, "activation": "relu6"}, "class_name": "Activation", "inbound_nodes": [[["conv_dw_3_bn", 0, 0, {}]]]}, {"name": "conv_pw_3", "config": {"trainable": true, "bias_regularizer": null, "kernel_constraint": null, "padding": "same", "name": "conv_pw_3", "kernel_size": [1, 1], "filters": 64, "use_bias": false, "bias_constraint": null, "kernel_regularizer": null, "activation": "linear", "dilation_rate": [1, 1], "activity_regularizer": null, "data_format": "channels_last", "strides": [1, 1], "bias_initializer": {"config": {}, "class_name": "Zeros"}, "kernel_initializer": {"config": {"scale": 1.0, "distribution": "uniform", "seed": null, "mode": "fan_avg"}, "class_name": "VarianceScaling"}}, "class_name": "Conv2D", "inbound_nodes": [[["conv_dw_3_relu", 0, 0, {}]]]}, {"name": "conv_pw_3_bn", "config": {"trainable": true, "beta_initializer": {"config": {}, "class_name": "Zeros"}, "gamma_constraint": null, "beta_constraint": null, "gamma_initializer": {"config": {}, "class_name": "Ones"}, "name": "conv_pw_3_bn", "moving_mean_initializer": {"config": {}, "class_name": "Zeros"}, "epsilon": 0.001, "momentum": 0.99, "moving_variance_initializer": {"config": {}, "class_name": "Ones"}, "axis": -1, "scale": true, "center": true, "beta_regularizer": null, "gamma_regularizer": null}, "class_name": "BatchNormalization", "inbound_nodes": [[["conv_pw_3", 0, 0, {}]]]}, {"name": "conv_pw_3_relu", "config": {"name": "conv_pw_3_relu", "trainable": true, "activation": "relu6"}, "class_name": "Activation", "inbound_nodes": [[["conv_pw_3_bn", 0, 0, {}]]]}, {"name": "conv_dw_4", "config": {"bias_regularizer": null, "trainable": true, "use_bias": false, "padding": "same", "name": "conv_dw_4", "kernel_size": [3, 3], "depthwise_initializer": {"config": {"scale": 1.0, "distribution": "uniform", "seed": null, "mode": "fan_avg"}, "class_name": "VarianceScaling"}, "depthwise_constraint": null, "data_format": "channels_last", "bias_constraint": null, "activation": "linear", "depth_multiplier": 1, "activity_regularizer": null, "dilation_rate": [1, 1], "depthwise_regularizer": null, "strides": [2, 2], "bias_initializer": {"config": {}, "class_name": "Zeros"}}, "class_name": "DepthwiseConv2D", "inbound_nodes": [[["conv_pw_3_relu", 0, 0, {}]]]}, {"name": "conv_dw_4_bn", "config": {"trainable": true, "beta_initializer": {"config": {}, "class_name": "Zeros"}, "gamma_constraint": null, "beta_constraint": null, "gamma_initializer": {"config": {}, "class_name": "Ones"}, "name": "conv_dw_4_bn", "moving_mean_initializer": {"config": {}, "class_name": "Zeros"}, "epsilon": 0.001, "momentum": 0.99, "moving_variance_initializer": {"config": {}, "class_name": "Ones"}, "axis": -1, "scale": true, "center": true, "beta_regularizer": null, "gamma_regularizer": null}, "class_name": "BatchNormalization", "inbound_nodes": [[["conv_dw_4", 0, 0, {}]]]}, {"name": "conv_dw_4_relu", "config": {"name": "conv_dw_4_relu", "trainable": true, "activation": "relu6"}, "class_name": "Activation", "inbound_nodes": [[["conv_dw_4_bn", 0, 0, {}]]]}, {"name": "conv_pw_4", "config": {"trainable": true, "bias_regularizer": null, "kernel_constraint": null, "padding": "same", "name": "conv_pw_4", "kernel_size": [1, 1], "filters": 128, "use_bias": false, "bias_constraint": null, "kernel_regularizer": null, "activation": "linear", "dilation_rate": [1, 1], "activity_regularizer": null, "data_format": "channels_last", "strides": [1, 1], "bias_initializer": {"config": {}, "class_name": "Zeros"}, "kernel_initializer": {"config": {"scale": 1.0, "distribution": "uniform", "seed": null, "mode": "fan_avg"}, "class_name": "VarianceScaling"}}, "class_name": "Conv2D", "inbound_nodes": [[["conv_dw_4_relu", 0, 0, {}]]]}, {"name": "conv_pw_4_bn", "config": {"trainable": true, "beta_initializer": {"config": {}, "class_name": "Zeros"}, "gamma_constraint": null, "beta_constraint": null, "gamma_initializer": {"config": {}, "class_name": "Ones"}, "name": "conv_pw_4_bn", "moving_mean_initializer": {"config": {}, "class_name": "Zeros"}, "epsilon": 0.001, "momentum": 0.99, "moving_variance_initializer": {"config": {}, "class_name": "Ones"}, "axis": -1, "scale": true, "center": true, "beta_regularizer": null, "gamma_regularizer": null}, "class_name": "BatchNormalization", "inbound_nodes": [[["conv_pw_4", 0, 0, {}]]]}, {"name": "conv_pw_4_relu", "config": {"name": "conv_pw_4_relu", "trainable": true, "activation": "relu6"}, "class_name": "Activation", "inbound_nodes": [[["conv_pw_4_bn", 0, 0, {}]]]}, {"name": "conv_dw_5", "config": {"bias_regularizer": null, "trainable": true, "use_bias": false, "padding": "same", "name": "conv_dw_5", "kernel_size": [3, 3], "depthwise_initializer": {"config": {"scale": 1.0, "distribution": "uniform", "seed": null, "mode": "fan_avg"}, "class_name": "VarianceScaling"}, "depthwise_constraint": null, "data_format": "channels_last", "bias_constraint": null, "activation": "linear", "depth_multiplier": 1, "activity_regularizer": null, "dilation_rate": [1, 1], "depthwise_regularizer": null, "strides": [1, 1], "bias_initializer": {"config": {}, "class_name": "Zeros"}}, "class_name": "DepthwiseConv2D", "inbound_nodes": [[["conv_pw_4_relu", 0, 0, {}]]]}, {"name": "conv_dw_5_bn", "config": {"trainable": true, "beta_initializer": {"config": {}, "class_name": "Zeros"}, "gamma_constraint": null, "beta_constraint": null, "gamma_initializer": {"config": {}, "class_name": "Ones"}, "name": "conv_dw_5_bn", "moving_mean_initializer": {"config": {}, "class_name": "Zeros"}, "epsilon": 0.001, "momentum": 0.99, "moving_variance_initializer": {"config": {}, "class_name": "Ones"}, "axis": -1, "scale": true, "center": true, "beta_regularizer": null, "gamma_regularizer": null}, "class_name": "BatchNormalization", "inbound_nodes": [[["conv_dw_5", 0, 0, {}]]]}, {"name": "conv_dw_5_relu", "config": {"name": "conv_dw_5_relu", "trainable": true, "activation": "relu6"}, "class_name": "Activation", "inbound_nodes": [[["conv_dw_5_bn", 0, 0, {}]]]}, {"name": "conv_pw_5", "config": {"trainable": true, "bias_regularizer": null, "kernel_constraint": null, "padding": "same", "name": "conv_pw_5", "kernel_size": [1, 1], "filters": 128, "use_bias": false, "bias_constraint": null, "kernel_regularizer": null, "activation": "linear", "dilation_rate": [1, 1], "activity_regularizer": null, "data_format": "channels_last", "strides": [1, 1], "bias_initializer": {"config": {}, "class_name": "Zeros"}, "kernel_initializer": {"config": {"scale": 1.0, "distribution": "uniform", "seed": null, "mode": "fan_avg"}, "class_name": "VarianceScaling"}}, "class_name": "Conv2D", "inbound_nodes": [[["conv_dw_5_relu", 0, 0, {}]]]}, {"name": "conv_pw_5_bn", "config": {"trainable": true, "beta_initializer": {"config": {}, "class_name": "Zeros"}, "gamma_constraint": null, "beta_constraint": null, "gamma_initializer": {"config": {}, "class_name": "Ones"}, "name": "conv_pw_5_bn", "moving_mean_initializer": {"config": {}, "class_name": "Zeros"}, "epsilon": 0.001, "momentum": 0.99, "moving_variance_initializer": {"config": {}, "class_name": "Ones"}, "axis": -1, "scale": true, "center": true, "beta_regularizer": null, "gamma_regularizer": null}, "class_name": "BatchNormalization", "inbound_nodes": [[["conv_pw_5", 0, 0, {}]]]}, {"name": "conv_pw_5_relu", "config": {"name": "conv_pw_5_relu", "trainable": true, "activation": "relu6"}, "class_name": "Activation", "inbound_nodes": [[["conv_pw_5_bn", 0, 0, {}]]]}, {"name": "conv_dw_6", "config": {"bias_regularizer": null, "trainable": true, "use_bias": false, "padding": "same", "name": "conv_dw_6", "kernel_size": [3, 3], "depthwise_initializer": {"config": {"scale": 1.0, "distribution": "uniform", "seed": null, "mode": "fan_avg"}, "class_name": "VarianceScaling"}, "depthwise_constraint": null, "data_format": "channels_last", "bias_constraint": null, "activation": "linear", "depth_multiplier": 1, "activity_regularizer": null, "dilation_rate": [1, 1], "depthwise_regularizer": null, "strides": [2, 2], "bias_initializer": {"config": {}, "class_name": "Zeros"}}, "class_name": "DepthwiseConv2D", "inbound_nodes": [[["conv_pw_5_relu", 0, 0, {}]]]}, {"name": "conv_dw_6_bn", "config": {"trainable": true, "beta_initializer": {"config": {}, "class_name": "Zeros"}, "gamma_constraint": null, "beta_constraint": null, "gamma_initializer": {"config": {}, "class_name": "Ones"}, "name": "conv_dw_6_bn", "moving_mean_initializer": {"config": {}, "class_name": "Zeros"}, "epsilon": 0.001, "momentum": 0.99, "moving_variance_initializer": {"config": {}, "class_name": "Ones"}, "axis": -1, "scale": true, "center": true, "beta_regularizer": null, "gamma_regularizer": null}, "class_name": "BatchNormalization", "inbound_nodes": [[["conv_dw_6", 0, 0, {}]]]}, {"name": "conv_dw_6_relu", "config": {"name": "conv_dw_6_relu", "trainable": true, "activation": "relu6"}, "class_name": "Activation", "inbound_nodes": [[["conv_dw_6_bn", 0, 0, {}]]]}, {"name": "conv_pw_6", "config": {"trainable": true, "bias_regularizer": null, "kernel_constraint": null, "padding": "same", "name": "conv_pw_6", "kernel_size": [1, 1], "filters": 256, "use_bias": false, "bias_constraint": null, "kernel_regularizer": null, "activation": "linear", "dilation_rate": [1, 1], "activity_regularizer": null, "data_format": "channels_last", "strides": [1, 1], "bias_initializer": {"config": {}, "class_name": "Zeros"}, "kernel_initializer": {"config": {"scale": 1.0, "distribution": "uniform", "seed": null, "mode": "fan_avg"}, "class_name": "VarianceScaling"}}, "class_name": "Conv2D", "inbound_nodes": [[["conv_dw_6_relu", 0, 0, {}]]]}, {"name": "conv_pw_6_bn", "config": {"trainable": true, "beta_initializer": {"config": {}, "class_name": "Zeros"}, "gamma_constraint": null, "beta_constraint": null, "gamma_initializer": {"config": {}, "class_name": "Ones"}, "name": "conv_pw_6_bn", "moving_mean_initializer": {"config": {}, "class_name": "Zeros"}, "epsilon": 0.001, "momentum": 0.99, "moving_variance_initializer": {"config": {}, "class_name": "Ones"}, "axis": -1, "scale": true, "center": true, "beta_regularizer": null, "gamma_regularizer": null}, "class_name": "BatchNormalization", "inbound_nodes": [[["conv_pw_6", 0, 0, {}]]]}, {"name": "conv_pw_6_relu", "config": {"name": "conv_pw_6_relu", "trainable": true, "activation": "relu6"}, "class_name": "Activation", "inbound_nodes": [[["conv_pw_6_bn", 0, 0, {}]]]}, {"name": "conv_dw_7", "config": {"bias_regularizer": null, "trainable": true, "use_bias": false, "padding": "same", "name": "conv_dw_7", "kernel_size": [3, 3], "depthwise_initializer": {"config": {"scale": 1.0, "distribution": "uniform", "seed": null, "mode": "fan_avg"}, "class_name": "VarianceScaling"}, "depthwise_constraint": null, "data_format": "channels_last", "bias_constraint": null, "activation": "linear", "depth_multiplier": 1, "activity_regularizer": null, "dilation_rate": [1, 1], "depthwise_regularizer": null, "strides": [1, 1], "bias_initializer": {"config": {}, "class_name": "Zeros"}}, "class_name": "DepthwiseConv2D", "inbound_nodes": [[["conv_pw_6_relu", 0, 0, {}]]]}, {"name": "conv_dw_7_bn", "config": {"trainable": true, "beta_initializer": {"config": {}, "class_name": "Zeros"}, "gamma_constraint": null, "beta_constraint": null, "gamma_initializer": {"config": {}, "class_name": "Ones"}, "name": "conv_dw_7_bn", "moving_mean_initializer": {"config": {}, "class_name": "Zeros"}, "epsilon": 0.001, "momentum": 0.99, "moving_variance_initializer": {"config": {}, "class_name": "Ones"}, "axis": -1, "scale": true, "center": true, "beta_regularizer": null, "gamma_regularizer": null}, "class_name": "BatchNormalization", "inbound_nodes": [[["conv_dw_7", 0, 0, {}]]]}, {"name": "conv_dw_7_relu", "config": {"name": "conv_dw_7_relu", "trainable": true, "activation": "relu6"}, "class_name": "Activation", "inbound_nodes": [[["conv_dw_7_bn", 0, 0, {}]]]}, {"name": "conv_pw_7", "config": {"trainable": true, "bias_regularizer": null, "kernel_constraint": null, "padding": "same", "name": "conv_pw_7", "kernel_size": [1, 1], "filters": 256, "use_bias": false, "bias_constraint": null, "kernel_regularizer": null, "activation": "linear", "dilation_rate": [1, 1], "activity_regularizer": null, "data_format": "channels_last", "strides": [1, 1], "bias_initializer": {"config": {}, "class_name": "Zeros"}, "kernel_initializer": {"config": {"scale": 1.0, "distribution": "uniform", "seed": null, "mode": "fan_avg"}, "class_name": "VarianceScaling"}}, "class_name": "Conv2D", "inbound_nodes": [[["conv_dw_7_relu", 0, 0, {}]]]}, {"name": "conv_pw_7_bn", "config": {"trainable": true, "beta_initializer": {"config": {}, "class_name": "Zeros"}, "gamma_constraint": null, "beta_constraint": null, "gamma_initializer": {"config": {}, "class_name": "Ones"}, "name": "conv_pw_7_bn", "moving_mean_initializer": {"config": {}, "class_name": "Zeros"}, "epsilon": 0.001, "momentum": 0.99, "moving_variance_initializer": {"config": {}, "class_name": "Ones"}, "axis": -1, "scale": true, "center": true, "beta_regularizer": null, "gamma_regularizer": null}, "class_name": "BatchNormalization", "inbound_nodes": [[["conv_pw_7", 0, 0, {}]]]}, {"name": "conv_pw_7_relu", "config": {"name": "conv_pw_7_relu", "trainable": true, "activation": "relu6"}, "class_name": "Activation", "inbound_nodes": [[["conv_pw_7_bn", 0, 0, {}]]]}, {"name": "conv_dw_8", "config": {"bias_regularizer": null, "trainable": true, "use_bias": false, "padding": "same", "name": "conv_dw_8", "kernel_size": [3, 3], "depthwise_initializer": {"config": {"scale": 1.0, "distribution": "uniform", "seed": null, "mode": "fan_avg"}, "class_name": "VarianceScaling"}, "depthwise_constraint": null, "data_format": "channels_last", "bias_constraint": null, "activation": "linear", "depth_multiplier": 1, "activity_regularizer": null, "dilation_rate": [1, 1], "depthwise_regularizer": null, "strides": [1, 1], "bias_initializer": {"config": {}, "class_name": "Zeros"}}, "class_name": "DepthwiseConv2D", "inbound_nodes": [[["conv_pw_7_relu", 0, 0, {}]]]}, {"name": "conv_dw_8_bn", "config": {"trainable": true, "beta_initializer": {"config": {}, "class_name": "Zeros"}, "gamma_constraint": null, "beta_constraint": null, "gamma_initializer": {"config": {}, "class_name": "Ones"}, "name": "conv_dw_8_bn", "moving_mean_initializer": {"config": {}, "class_name": "Zeros"}, "epsilon": 0.001, "momentum": 0.99, "moving_variance_initializer": {"config": {}, "class_name": "Ones"}, "axis": -1, "scale": true, "center": true, "beta_regularizer": null, "gamma_regularizer": null}, "class_name": "BatchNormalization", "inbound_nodes": [[["conv_dw_8", 0, 0, {}]]]}, {"name": "conv_dw_8_relu", "config": {"name": "conv_dw_8_relu", "trainable": true, "activation": "relu6"}, "class_name": "Activation", "inbound_nodes": [[["conv_dw_8_bn", 0, 0, {}]]]}, {"name": "conv_pw_8", "config": {"trainable": true, "bias_regularizer": null, "kernel_constraint": null, "padding": "same", "name": "conv_pw_8", "kernel_size": [1, 1], "filters": 256, "use_bias": false, "bias_constraint": null, "kernel_regularizer": null, "activation": "linear", "dilation_rate": [1, 1], "activity_regularizer": null, "data_format": "channels_last", "strides": [1, 1], "bias_initializer": {"config": {}, "class_name": "Zeros"}, "kernel_initializer": {"config": {"scale": 1.0, "distribution": "uniform", "seed": null, "mode": "fan_avg"}, "class_name": "VarianceScaling"}}, "class_name": "Conv2D", "inbound_nodes": [[["conv_dw_8_relu", 0, 0, {}]]]}, {"name": "conv_pw_8_bn", "config": {"trainable": true, "beta_initializer": {"config": {}, "class_name": "Zeros"}, "gamma_constraint": null, "beta_constraint": null, "gamma_initializer": {"config": {}, "class_name": "Ones"}, "name": "conv_pw_8_bn", "moving_mean_initializer": {"config": {}, "class_name": "Zeros"}, "epsilon": 0.001, "momentum": 0.99, "moving_variance_initializer": {"config": {}, "class_name": "Ones"}, "axis": -1, "scale": true, "center": true, "beta_regularizer": null, "gamma_regularizer": null}, "class_name": "BatchNormalization", "inbound_nodes": [[["conv_pw_8", 0, 0, {}]]]}, {"name": "conv_pw_8_relu", "config": {"name": "conv_pw_8_relu", "trainable": true, "activation": "relu6"}, "class_name": "Activation", "inbound_nodes": [[["conv_pw_8_bn", 0, 0, {}]]]}, {"name": "conv_dw_9", "config": {"bias_regularizer": null, "trainable": true, "use_bias": false, "padding": "same", "name": "conv_dw_9", "kernel_size": [3, 3], "depthwise_initializer": {"config": {"scale": 1.0, "distribution": "uniform", "seed": null, "mode": "fan_avg"}, "class_name": "VarianceScaling"}, "depthwise_constraint": null, "data_format": "channels_last", "bias_constraint": null, "activation": "linear", "depth_multiplier": 1, "activity_regularizer": null, "dilation_rate": [1, 1], "depthwise_regularizer": null, "strides": [1, 1], "bias_initializer": {"config": {}, "class_name": "Zeros"}}, "class_name": "DepthwiseConv2D", "inbound_nodes": [[["conv_pw_8_relu", 0, 0, {}]]]}, {"name": "conv_dw_9_bn", "config": {"trainable": true, "beta_initializer": {"config": {}, "class_name": "Zeros"}, "gamma_constraint": null, "beta_constraint": null, "gamma_initializer": {"config": {}, "class_name": "Ones"}, "name": "conv_dw_9_bn", "moving_mean_initializer": {"config": {}, "class_name": "Zeros"}, "epsilon": 0.001, "momentum": 0.99, "moving_variance_initializer": {"config": {}, "class_name": "Ones"}, "axis": -1, "scale": true, "center": true, "beta_regularizer": null, "gamma_regularizer": null}, "class_name": "BatchNormalization", "inbound_nodes": [[["conv_dw_9", 0, 0, {}]]]}, {"name": "conv_dw_9_relu", "config": {"name": "conv_dw_9_relu", "trainable": true, "activation": "relu6"}, "class_name": "Activation", "inbound_nodes": [[["conv_dw_9_bn", 0, 0, {}]]]}, {"name": "conv_pw_9", "config": {"trainable": true, "bias_regularizer": null, "kernel_constraint": null, "padding": "same", "name": "conv_pw_9", "kernel_size": [1, 1], "filters": 256, "use_bias": false, "bias_constraint": null, "kernel_regularizer": null, "activation": "linear", "dilation_rate": [1, 1], "activity_regularizer": null, "data_format": "channels_last", "strides": [1, 1], "bias_initializer": {"config": {}, "class_name": "Zeros"}, "kernel_initializer": {"config": {"scale": 1.0, "distribution": "uniform", "seed": null, "mode": "fan_avg"}, "class_name": "VarianceScaling"}}, "class_name": "Conv2D", "inbound_nodes": [[["conv_dw_9_relu", 0, 0, {}]]]}, {"name": "conv_pw_9_bn", "config": {"trainable": true, "beta_initializer": {"config": {}, "class_name": "Zeros"}, "gamma_constraint": null, "beta_constraint": null, "gamma_initializer": {"config": {}, "class_name": "Ones"}, "name": "conv_pw_9_bn", "moving_mean_initializer": {"config": {}, "class_name": "Zeros"}, "epsilon": 0.001, "momentum": 0.99, "moving_variance_initializer": {"config": {}, "class_name": "Ones"}, "axis": -1, "scale": true, "center": true, "beta_regularizer": null, "gamma_regularizer": null}, "class_name": "BatchNormalization", "inbound_nodes": [[["conv_pw_9", 0, 0, {}]]]}, {"name": "conv_pw_9_relu", "config": {"name": "conv_pw_9_relu", "trainable": true, "activation": "relu6"}, "class_name": "Activation", "inbound_nodes": [[["conv_pw_9_bn", 0, 0, {}]]]}, {"name": "conv_dw_10", "config": {"bias_regularizer": null, "trainable": true, "use_bias": false, "padding": "same", "name": "conv_dw_10", "kernel_size": [3, 3], "depthwise_initializer": {"config": {"scale": 1.0, "distribution": "uniform", "seed": null, "mode": "fan_avg"}, "class_name": "VarianceScaling"}, "depthwise_constraint": null, "data_format": "channels_last", "bias_constraint": null, "activation": "linear", "depth_multiplier": 1, "activity_regularizer": null, "dilation_rate": [1, 1], "depthwise_regularizer": null, "strides": [1, 1], "bias_initializer": {"config": {}, "class_name": "Zeros"}}, "class_name": "DepthwiseConv2D", "inbound_nodes": [[["conv_pw_9_relu", 0, 0, {}]]]}, {"name": "conv_dw_10_bn", "config": {"trainable": true, "beta_initializer": {"config": {}, "class_name": "Zeros"}, "gamma_constraint": null, "beta_constraint": null, "gamma_initializer": {"config": {}, "class_name": "Ones"}, "name": "conv_dw_10_bn", "moving_mean_initializer": {"config": {}, "class_name": "Zeros"}, "epsilon": 0.001, "momentum": 0.99, "moving_variance_initializer": {"config": {}, "class_name": "Ones"}, "axis": -1, "scale": true, "center": true, "beta_regularizer": null, "gamma_regularizer": null}, "class_name": "BatchNormalization", "inbound_nodes": [[["conv_dw_10", 0, 0, {}]]]}, {"name": "conv_dw_10_relu", "config": {"name": "conv_dw_10_relu", "trainable": true, "activation": "relu6"}, "class_name": "Activation", "inbound_nodes": [[["conv_dw_10_bn", 0, 0, {}]]]}, {"name": "conv_pw_10", "config": {"trainable": true, "bias_regularizer": null, "kernel_constraint": null, "padding": "same", "name": "conv_pw_10", "kernel_size": [1, 1], "filters": 256, "use_bias": false, "bias_constraint": null, "kernel_regularizer": null, "activation": "linear", "dilation_rate": [1, 1], "activity_regularizer": null, "data_format": "channels_last", "strides": [1, 1], "bias_initializer": {"config": {}, "class_name": "Zeros"}, "kernel_initializer": {"config": {"scale": 1.0, "distribution": "uniform", "seed": null, "mode": "fan_avg"}, "class_name": "VarianceScaling"}}, "class_name": "Conv2D", "inbound_nodes": [[["conv_dw_10_relu", 0, 0, {}]]]}, {"name": "conv_pw_10_bn", "config": {"trainable": true, "beta_initializer": {"config": {}, "class_name": "Zeros"}, "gamma_constraint": null, "beta_constraint": null, "gamma_initializer": {"config": {}, "class_name": "Ones"}, "name": "conv_pw_10_bn", "moving_mean_initializer": {"config": {}, "class_name": "Zeros"}, "epsilon": 0.001, "momentum": 0.99, "moving_variance_initializer": {"config": {}, "class_name": "Ones"}, "axis": -1, "scale": true, "center": true, "beta_regularizer": null, "gamma_regularizer": null}, "class_name": "BatchNormalization", "inbound_nodes": [[["conv_pw_10", 0, 0, {}]]]}, {"name": "conv_pw_10_relu", "config": {"name": "conv_pw_10_relu", "trainable": true, "activation": "relu6"}, "class_name": "Activation", "inbound_nodes": [[["conv_pw_10_bn", 0, 0, {}]]]}, {"name": "conv_dw_11", "config": {"bias_regularizer": null, "trainable": true, "use_bias": false, "padding": "same", "name": "conv_dw_11", "kernel_size": [3, 3], "depthwise_initializer": {"config": {"scale": 1.0, "distribution": "uniform", "seed": null, "mode": "fan_avg"}, "class_name": "VarianceScaling"}, "depthwise_constraint": null, "data_format": "channels_last", "bias_constraint": null, "activation": "linear", "depth_multiplier": 1, "activity_regularizer": null, "dilation_rate": [1, 1], "depthwise_regularizer": null, "strides": [1, 1], "bias_initializer": {"config": {}, "class_name": "Zeros"}}, "class_name": "DepthwiseConv2D", "inbound_nodes": [[["conv_pw_10_relu", 0, 0, {}]]]}, {"name": "conv_dw_11_bn", "config": {"trainable": true, "beta_initializer": {"config": {}, "class_name": "Zeros"}, "gamma_constraint": null, "beta_constraint": null, "gamma_initializer": {"config": {}, "class_name": "Ones"}, "name": "conv_dw_11_bn", "moving_mean_initializer": {"config": {}, "class_name": "Zeros"}, "epsilon": 0.001, "momentum": 0.99, "moving_variance_initializer": {"config": {}, "class_name": "Ones"}, "axis": -1, "scale": true, "center": true, "beta_regularizer": null, "gamma_regularizer": null}, "class_name": "BatchNormalization", "inbound_nodes": [[["conv_dw_11", 0, 0, {}]]]}, {"name": "conv_dw_11_relu", "config": {"name": "conv_dw_11_relu", "trainable": true, "activation": "relu6"}, "class_name": "Activation", "inbound_nodes": [[["conv_dw_11_bn", 0, 0, {}]]]}, {"name": "conv_pw_11", "config": {"trainable": true, "bias_regularizer": null, "kernel_constraint": null, "padding": "same", "name": "conv_pw_11", "kernel_size": [1, 1], "filters": 256, "use_bias": false, "bias_constraint": null, "kernel_regularizer": null, "activation": "linear", "dilation_rate": [1, 1], "activity_regularizer": null, "data_format": "channels_last", "strides": [1, 1], "bias_initializer": {"config": {}, "class_name": "Zeros"}, "kernel_initializer": {"config": {"scale": 1.0, "distribution": "uniform", "seed": null, "mode": "fan_avg"}, "class_name": "VarianceScaling"}}, "class_name": "Conv2D", "inbound_nodes": [[["conv_dw_11_relu", 0, 0, {}]]]}, {"name": "conv_pw_11_bn", "config": {"trainable": true, "beta_initializer": {"config": {}, "class_name": "Zeros"}, "gamma_constraint": null, "beta_constraint": null, "gamma_initializer": {"config": {}, "class_name": "Ones"}, "name": "conv_pw_11_bn", "moving_mean_initializer": {"config": {}, "class_name": "Zeros"}, "epsilon": 0.001, "momentum": 0.99, "moving_variance_initializer": {"config": {}, "class_name": "Ones"}, "axis": -1, "scale": true, "center": true, "beta_regularizer": null, "gamma_regularizer": null}, "class_name": "BatchNormalization", "inbound_nodes": [[["conv_pw_11", 0, 0, {}]]]}, {"name": "conv_pw_11_relu", "config": {"name": "conv_pw_11_relu", "trainable": true, "activation": "relu6"}, "class_name": "Activation", "inbound_nodes": [[["conv_pw_11_bn", 0, 0, {}]]]}, {"name": "conv_dw_12", "config": {"bias_regularizer": null, "trainable": true, "use_bias": false, "padding": "same", "name": "conv_dw_12", "kernel_size": [3, 3], "depthwise_initializer": {"config": {"scale": 1.0, "distribution": "uniform", "seed": null, "mode": "fan_avg"}, "class_name": "VarianceScaling"}, "depthwise_constraint": null, "data_format": "channels_last", "bias_constraint": null, "activation": "linear", "depth_multiplier": 1, "activity_regularizer": null, "dilation_rate": [1, 1], "depthwise_regularizer": null, "strides": [2, 2], "bias_initializer": {"config": {}, "class_name": "Zeros"}}, "class_name": "DepthwiseConv2D", "inbound_nodes": [[["conv_pw_11_relu", 0, 0, {}]]]}, {"name": "conv_dw_12_bn", "config": {"trainable": true, "beta_initializer": {"config": {}, "class_name": "Zeros"}, "gamma_constraint": null, "beta_constraint": null, "gamma_initializer": {"config": {}, "class_name": "Ones"}, "name": "conv_dw_12_bn", "moving_mean_initializer": {"config": {}, "class_name": "Zeros"}, "epsilon": 0.001, "momentum": 0.99, "moving_variance_initializer": {"config": {}, "class_name": "Ones"}, "axis": -1, "scale": true, "center": true, "beta_regularizer": null, "gamma_regularizer": null}, "class_name": "BatchNormalization", "inbound_nodes": [[["conv_dw_12", 0, 0, {}]]]}, {"name": "conv_dw_12_relu", "config": {"name": "conv_dw_12_relu", "trainable": true, "activation": "relu6"}, "class_name": "Activation", "inbound_nodes": [[["conv_dw_12_bn", 0, 0, {}]]]}, {"name": "conv_pw_12", "config": {"trainable": true, "bias_regularizer": null, "kernel_constraint": null, "padding": "same", "name": "conv_pw_12", "kernel_size": [1, 1], "filters": 512, "use_bias": false, "bias_constraint": null, "kernel_regularizer": null, "activation": "linear", "dilation_rate": [1, 1], "activity_regularizer": null, "data_format": "channels_last", "strides": [1, 1], "bias_initializer": {"config": {}, "class_name": "Zeros"}, "kernel_initializer": {"config": {"scale": 1.0, "distribution": "uniform", "seed": null, "mode": "fan_avg"}, "class_name": "VarianceScaling"}}, "class_name": "Conv2D", "inbound_nodes": [[["conv_dw_12_relu", 0, 0, {}]]]}, {"name": "conv_pw_12_bn", "config": {"trainable": true, "beta_initializer": {"config": {}, "class_name": "Zeros"}, "gamma_constraint": null, "beta_constraint": null, "gamma_initializer": {"config": {}, "class_name": "Ones"}, "name": "conv_pw_12_bn", "moving_mean_initializer": {"config": {}, "class_name": "Zeros"}, "epsilon": 0.001, "momentum": 0.99, "moving_variance_initializer": {"config": {}, "class_name": "Ones"}, "axis": -1, "scale": true, "center": true, "beta_regularizer": null, "gamma_regularizer": null}, "class_name": "BatchNormalization", "inbound_nodes": [[["conv_pw_12", 0, 0, {}]]]}, {"name": "conv_pw_12_relu", "config": {"name": "conv_pw_12_relu", "trainable": true, "activation": "relu6"}, "class_name": "Activation", "inbound_nodes": [[["conv_pw_12_bn", 0, 0, {}]]]}, {"name": "conv_dw_13", "config": {"bias_regularizer": null, "trainable": true, "use_bias": false, "padding": "same", "name": "conv_dw_13", "kernel_size": [3, 3], "depthwise_initializer": {"config": {"scale": 1.0, "distribution": "uniform", "seed": null, "mode": "fan_avg"}, "class_name": "VarianceScaling"}, "depthwise_constraint": null, "data_format": "channels_last", "bias_constraint": null, "activation": "linear", "depth_multiplier": 1, "activity_regularizer": null, "dilation_rate": [1, 1], "depthwise_regularizer": null, "strides": [1, 1], "bias_initializer": {"config": {}, "class_name": "Zeros"}}, "class_name": "DepthwiseConv2D", "inbound_nodes": [[["conv_pw_12_relu", 0, 0, {}]]]}, {"name": "conv_dw_13_bn", "config": {"trainable": true, "beta_initializer": {"config": {}, "class_name": "Zeros"}, "gamma_constraint": null, "beta_constraint": null, "gamma_initializer": {"config": {}, "class_name": "Ones"}, "name": "conv_dw_13_bn", "moving_mean_initializer": {"config": {}, "class_name": "Zeros"}, "epsilon": 0.001, "momentum": 0.99, "moving_variance_initializer": {"config": {}, "class_name": "Ones"}, "axis": -1, "scale": true, "center": true, "beta_regularizer": null, "gamma_regularizer": null}, "class_name": "BatchNormalization", "inbound_nodes": [[["conv_dw_13", 0, 0, {}]]]}, {"name": "conv_dw_13_relu", "config": {"name": "conv_dw_13_relu", "trainable": true, "activation": "relu6"}, "class_name": "Activation", "inbound_nodes": [[["conv_dw_13_bn", 0, 0, {}]]]}, {"name": "conv_pw_13", "config": {"trainable": true, "bias_regularizer": null, "kernel_constraint": null, "padding": "same", "name": "conv_pw_13", "kernel_size": [1, 1], "filters": 512, "use_bias": false, "bias_constraint": null, "kernel_regularizer": null, "activation": "linear", "dilation_rate": [1, 1], "activity_regularizer": null, "data_format": "channels_last", "strides": [1, 1], "bias_initializer": {"config": {}, "class_name": "Zeros"}, "kernel_initializer": {"config": {"scale": 1.0, "distribution": "uniform", "seed": null, "mode": "fan_avg"}, "class_name": "VarianceScaling"}}, "class_name": "Conv2D", "inbound_nodes": [[["conv_dw_13_relu", 0, 0, {}]]]}, {"name": "conv_pw_13_bn", "config": {"trainable": true, "beta_initializer": {"config": {}, "class_name": "Zeros"}, "gamma_constraint": null, "beta_constraint": null, "gamma_initializer": {"config": {}, "class_name": "Ones"}, "name": "conv_pw_13_bn", "moving_mean_initializer": {"config": {}, "class_name": "Zeros"}, "epsilon": 0.001, "momentum": 0.99, "moving_variance_initializer": {"config": {}, "class_name": "Ones"}, "axis": -1, "scale": true, "center": true, "beta_regularizer": null, "gamma_regularizer": null}, "class_name": "BatchNormalization", "inbound_nodes": [[["conv_pw_13", 0, 0, {}]]]}, {"name": "conv_pw_13_relu", "config": {"name": "conv_pw_13_relu", "trainable": true, "activation": "relu6"}, "class_name": "Activation", "inbound_nodes": [[["conv_pw_13_bn", 0, 0, {}]]]}], "input_layers": [["input_2", 0, 0]]}, "class_name": "Model", "inbound_nodes": [[["input_1", 0, 0, {}]]]}, {"name": "conv2d_1", "config": {"trainable": true, "bias_regularizer": null, "kernel_constraint": null, "padding": "valid", "name": "conv2d_1", "kernel_size": [1, 1], "data_format": "channels_last", "kernel_regularizer": null, "use_bias": true, "bias_constraint": null, "filters": 20, "bias_initializer": {"config": {}, "class_name": "Zeros"}, "activity_regularizer": null, "dilation_rate": [1, 1], "strides": [1, 1], "activation": "relu", "kernel_initializer": {"config": {"scale": 1.0, "distribution": "uniform", "seed": null, "mode": "fan_avg"}, "class_name": "VarianceScaling"}}, "class_name": "Conv2D", "inbound_nodes": [[["mobilenet_0.50_64", 1, 0, {}]]]}, {"name": "flatten_1", "config": {"name": "flatten_1", "trainable": true}, "class_name": "Flatten", "inbound_nodes": [[["conv2d_1", 0, 0, {}]]]}, {"name": "dropout_1", "config": {"name": "dropout_1", "trainable": true, "rate": 0.2}, "class_name": "Dropout", "inbound_nodes": [[["flatten_1", 0, 0, {}]]]}, {"name": "feat_a", "config": {"trainable": true, "bias_regularizer": null, "kernel_constraint": null, "name": "feat_a", "use_bias": true, "bias_constraint": null, "kernel_regularizer": null, "activation": "relu", "activity_regularizer": null, "units": 32, "kernel_initializer": {"config": {"scale": 1.0, "distribution": "uniform", "seed": null, "mode": "fan_avg"}, "class_name": "VarianceScaling"}, "bias_initializer": {"config": {}, "class_name": "Zeros"}}, "class_name": "Dense", "inbound_nodes": [[["dropout_1", 0, 0, {}]]]}, {"name": "pred_a", "config": {"trainable": true, "bias_regularizer": null, "kernel_constraint": null, "name": "pred_a", "use_bias": true, "bias_constraint": null, "kernel_regularizer": null, "activation": "linear", "activity_regularizer": null, "units": 1, "kernel_initializer": {"config": {"scale": 1.0, "distribution": "uniform", "seed": null, "mode": "fan_avg"}, "class_name": "VarianceScaling"}, "bias_initializer": {"config": {}, "class_name": "Zeros"}}, "class_name": "Dense", "inbound_nodes": [[["feat_a", 0, 0, {}]]]}], "output_layers": [["pred_a", 0, 0]], "input_layers": [["input_1", 0, 0]]}, "class_name": "Model", "backend": "tensorflow"}