{"keras_version": "2.0.6", "backend": "tensorflow", "config": {"input_layers": [["input_1", 0, 0]], "output_layers": [["pred_a", 0, 0]], "layers": [{"inbound_nodes": [], "config": {"batch_input_shape": [null, 64, 64, 3], "sparse": false, "dtype": "float32", "name": "input_1"}, "class_name": "InputLayer", "name": "input_1"}, {"inbound_nodes": [[["input_1", 0, 0, {}]]], "config": {"input_layers": [["input_2", 0, 0]], "output_layers": [["global_average_pooling2d_1", 0, 0]], "layers": [{"inbound_nodes": [], "config": {"batch_input_shape": [null, 64, 64, 3], "sparse": false, "dtype": "float32", "name": "input_2"}, "class_name": "InputLayer", "name": "input_2"}, {"inbound_nodes": [[["input_2", 0, 0, {}]]], "config": {"kernel_regularizer": {"config": {"l2": 9.999999747378752e-05, "l1": 0.0}, "class_name": "L1L2"}, "padding": "same", "dilation_rate": [1, 1], "filters": 24, "bias_regularizer": null, "kernel_size": [3, 3], "kernel_constraint": null, "use_bias": false, "trainable": true, "strides": [1, 1], "bias_constraint": null, "bias_initializer": {"config": {}, "class_name": "Zeros"}, "name": "conv2d_1", "activity_regularizer": null, "activation": "linear", "kernel_initializer": {"config": {"distribution": "normal", "mode": "fan_in", "scale": 2.0, "seed": null}, "class_name": "VarianceScaling"}, "data_format": "channels_last"}, "class_name": "Conv2D", "name": "conv2d_1"}, {"inbound_nodes": [[["conv2d_1", 0, 0, {}]]], "config": {"momentum": 0.99, "beta_regularizer": null, "gamma_regularizer": null, "beta_constraint": null, "gamma_constraint": null, "moving_variance_initializer": {"config": {}, "class_name": "Ones"}, "beta_initializer": {"config": {}, "class_name": "Zeros"}, "epsilon": 1.1e-05, "axis": -1, "trainable": true, "moving_mean_initializer": {"config": {}, "class_name": "Zeros"}, "center": true, "name": "batch_normalization_1", "scale": true, "gamma_initializer": {"config": {}, "class_name": "Ones"}}, "class_name": "BatchNormalization", "name": "batch_normalization_1"}, {"inbound_nodes": [[["batch_normalization_1", 0, 0, {}]]], "config": {"trainable": true, "activation": "relu", "name": "activation_1"}, "class_name": "Activation", "name": "activation_1"}, {"inbound_nodes": [[["activation_1", 0, 0, {}]]], "config": {"kernel_regularizer": null, "padding": "same", "dilation_rate": [1, 1], "filters": 12, "bias_regularizer": null, "kernel_size": [3, 3], "kernel_constraint": null, "use_bias": false, "trainable": true, "strides": [1, 1], "bias_constraint": null, "bias_initializer": {"config": {}, "class_name": "Zeros"}, "name": "conv2d_2", "activity_regularizer": null, "activation": "linear", "kernel_initializer": {"config": {"distribution": "normal", "mode": "fan_in", "scale": 2.0, "seed": null}, "class_name": "VarianceScaling"}, "data_format": "channels_last"}, "class_name": "Conv2D", "name": "conv2d_2"}, {"inbound_nodes": [[["conv2d_1", 0, 0, {}], ["conv2d_2", 0, 0, {}]]], "config": {"axis": -1, "trainable": true, "name": "concatenate_1"}, "class_name": "Concatenate", "name": "concatenate_1"}, {"inbound_nodes": [[["concatenate_1", 0, 0, {}]]], "config": {"momentum": 0.99, "beta_regularizer": null, "gamma_regularizer": null, "beta_constraint": null, "gamma_constraint": null, "moving_variance_initializer": {"config": {}, "class_name": "Ones"}, "beta_initializer": {"config": {}, "class_name": "Zeros"}, "epsilon": 1.1e-05, "axis": -1, "trainable": true, "moving_mean_initializer": {"config": {}, "class_name": "Zeros"}, "center": true, "name": "batch_normalization_2", "scale": true, "gamma_initializer": {"config": {}, "class_name": "Ones"}}, "class_name": "BatchNormalization", "name": "batch_normalization_2"}, {"inbound_nodes": [[["batch_normalization_2", 0, 0, {}]]], "config": {"trainable": true, "activation": "relu", "name": "activation_2"}, "class_name": "Activation", "name": "activation_2"}, {"inbound_nodes": [[["activation_2", 0, 0, {}]]], "config": {"kernel_regularizer": null, "padding": "same", "dilation_rate": [1, 1], "filters": 12, "bias_regularizer": null, "kernel_size": [3, 3], "kernel_constraint": null, "use_bias": false, "trainable": true, "strides": [1, 1], "bias_constraint": null, "bias_initializer": {"config": {}, "class_name": "Zeros"}, "name": "conv2d_3", "activity_regularizer": null, "activation": "linear", "kernel_initializer": {"config": {"distribution": "normal", "mode": "fan_in", "scale": 2.0, "seed": null}, "class_name": "VarianceScaling"}, "data_format": "channels_last"}, "class_name": "Conv2D", "name": "conv2d_3"}, {"inbound_nodes": [[["concatenate_1", 0, 0, {}], ["conv2d_3", 0, 0, {}]]], "config": {"axis": -1, "trainable": true, "name": "concatenate_2"}, "class_name": "Concatenate", "name": "concatenate_2"}, {"inbound_nodes": [[["concatenate_2", 0, 0, {}]]], "config": {"momentum": 0.99, "beta_regularizer": null, "gamma_regularizer": null, "beta_constraint": null, "gamma_constraint": null, "moving_variance_initializer": {"config": {}, "class_name": "Ones"}, "beta_initializer": {"config": {}, "class_name": "Zeros"}, "epsilon": 1.1e-05, "axis": -1, "trainable": true, "moving_mean_initializer": {"config": {}, "class_name": "Zeros"}, "center": true, "name": "batch_normalization_3", "scale": true, "gamma_initializer": {"config": {}, "class_name": "Ones"}}, "class_name": "BatchNormalization", "name": "batch_normalization_3"}, {"inbound_nodes": [[["batch_normalization_3", 0, 0, {}]]], "config": {"trainable": true, "activation": "relu", "name": "activation_3"}, "class_name": "Activation", "name": "activation_3"}, {"inbound_nodes": [[["activation_3", 0, 0, {}]]], "config": {"kernel_regularizer": null, "padding": "same", "dilation_rate": [1, 1], "filters": 12, "bias_regularizer": null, "kernel_size": [3, 3], "kernel_constraint": null, "use_bias": false, "trainable": true, "strides": [1, 1], "bias_constraint": null, "bias_initializer": {"config": {}, "class_name": "Zeros"}, "name": "conv2d_4", "activity_regularizer": null, "activation": "linear", "kernel_initializer": {"config": {"distribution": "normal", "mode": "fan_in", "scale": 2.0, "seed": null}, "class_name": "VarianceScaling"}, "data_format": "channels_last"}, "class_name": "Conv2D", "name": "conv2d_4"}, {"inbound_nodes": [[["concatenate_2", 0, 0, {}], ["conv2d_4", 0, 0, {}]]], "config": {"axis": -1, "trainable": true, "name": "concatenate_3"}, "class_name": "Concatenate", "name": "concatenate_3"}, {"inbound_nodes": [[["concatenate_3", 0, 0, {}]]], "config": {"momentum": 0.99, "beta_regularizer": null, "gamma_regularizer": null, "beta_constraint": null, "gamma_constraint": null, "moving_variance_initializer": {"config": {}, "class_name": "Ones"}, "beta_initializer": {"config": {}, "class_name": "Zeros"}, "epsilon": 1.1e-05, "axis": -1, "trainable": true, "moving_mean_initializer": {"config": {}, "class_name": "Zeros"}, "center": true, "name": "batch_normalization_4", "scale": true, "gamma_initializer": {"config": {}, "class_name": "Ones"}}, "class_name": "BatchNormalization", "name": "batch_normalization_4"}, {"inbound_nodes": [[["batch_normalization_4", 0, 0, {}]]], "config": {"trainable": true, "activation": "relu", "name": "activation_4"}, "class_name": "Activation", "name": "activation_4"}, {"inbound_nodes": [[["activation_4", 0, 0, {}]]], "config": {"kernel_regularizer": {"config": {"l2": 9.999999747378752e-05, "l1": 0.0}, "class_name": "L1L2"}, "padding": "same", "dilation_rate": [1, 1], "filters": 60, "bias_regularizer": null, "kernel_size": [1, 1], "kernel_constraint": null, "use_bias": false, "trainable": true, "strides": [1, 1], "bias_constraint": null, "bias_initializer": {"config": {}, "class_name": "Zeros"}, "name": "conv2d_5", "activity_regularizer": null, "activation": "linear", "kernel_initializer": {"config": {"distribution": "normal", "mode": "fan_in", "scale": 2.0, "seed": null}, "class_name": "VarianceScaling"}, "data_format": "channels_last"}, "class_name": "Conv2D", "name": "conv2d_5"}, {"inbound_nodes": [[["conv2d_5", 0, 0, {}]]], "config": {"pool_size": [2, 2], "padding": "valid", "trainable": true, "strides": [2, 2], "data_format": "channels_last", "name": "average_pooling2d_1"}, "class_name": "AveragePooling2D", "name": "average_pooling2d_1"}, {"inbound_nodes": [[["average_pooling2d_1", 0, 0, {}]]], "config": {"momentum": 0.99, "beta_regularizer": null, "gamma_regularizer": null, "beta_constraint": null, "gamma_constraint": null, "moving_variance_initializer": {"config": {}, "class_name": "Ones"}, "beta_initializer": {"config": {}, "class_name": "Zeros"}, "epsilon": 1.1e-05, "axis": -1, "trainable": true, "moving_mean_initializer": {"config": {}, "class_name": "Zeros"}, "center": true, "name": "batch_normalization_5", "scale": true, "gamma_initializer": {"config": {}, "class_name": "Ones"}}, "class_name": "BatchNormalization", "name": "batch_normalization_5"}, {"inbound_nodes": [[["batch_normalization_5", 0, 0, {}]]], "config": {"trainable": true, "activation": "relu", "name": "activation_5"}, "class_name": "Activation", "name": "activation_5"}, {"inbound_nodes": [[["activation_5", 0, 0, {}]]], "config": {"kernel_regularizer": null, "padding": "same", "dilation_rate": [1, 1], "filters": 12, "bias_regularizer": null, "kernel_size": [3, 3], "kernel_constraint": null, "use_bias": false, "trainable": true, "strides": [1, 1], "bias_constraint": null, "bias_initializer": {"config": {}, "class_name": "Zeros"}, "name": "conv2d_6", "activity_regularizer": null, "activation": "linear", "kernel_initializer": {"config": {"distribution": "normal", "mode": "fan_in", "scale": 2.0, "seed": null}, "class_name": "VarianceScaling"}, "data_format": "channels_last"}, "class_name": "Conv2D", "name": "conv2d_6"}, {"inbound_nodes": [[["average_pooling2d_1", 0, 0, {}], ["conv2d_6", 0, 0, {}]]], "config": {"axis": -1, "trainable": true, "name": "concatenate_4"}, "class_name": "Concatenate", "name": "concatenate_4"}, {"inbound_nodes": [[["concatenate_4", 0, 0, {}]]], "config": {"momentum": 0.99, "beta_regularizer": null, "gamma_regularizer": null, "beta_constraint": null, "gamma_constraint": null, "moving_variance_initializer": {"config": {}, "class_name": "Ones"}, "beta_initializer": {"config": {}, "class_name": "Zeros"}, "epsilon": 1.1e-05, "axis": -1, "trainable": true, "moving_mean_initializer": {"config": {}, "class_name": "Zeros"}, "center": true, "name": "batch_normalization_6", "scale": true, "gamma_initializer": {"config": {}, "class_name": "Ones"}}, "class_name": "BatchNormalization", "name": "batch_normalization_6"}, {"inbound_nodes": [[["batch_normalization_6", 0, 0, {}]]], "config": {"trainable": true, "activation": "relu", "name": "activation_6"}, "class_name": "Activation", "name": "activation_6"}, {"inbound_nodes": [[["activation_6", 0, 0, {}]]], "config": {"kernel_regularizer": null, "padding": "same", "dilation_rate": [1, 1], "filters": 12, "bias_regularizer": null, "kernel_size": [3, 3], "kernel_constraint": null, "use_bias": false, "trainable": true, "strides": [1, 1], "bias_constraint": null, "bias_initializer": {"config": {}, "class_name": "Zeros"}, "name": "conv2d_7", "activity_regularizer": null, "activation": "linear", "kernel_initializer": {"config": {"distribution": "normal", "mode": "fan_in", "scale": 2.0, "seed": null}, "class_name": "VarianceScaling"}, "data_format": "channels_last"}, "class_name": "Conv2D", "name": "conv2d_7"}, {"inbound_nodes": [[["concatenate_4", 0, 0, {}], ["conv2d_7", 0, 0, {}]]], "config": {"axis": -1, "trainable": true, "name": "concatenate_5"}, "class_name": "Concatenate", "name": "concatenate_5"}, {"inbound_nodes": [[["concatenate_5", 0, 0, {}]]], "config": {"momentum": 0.99, "beta_regularizer": null, "gamma_regularizer": null, "beta_constraint": null, "gamma_constraint": null, "moving_variance_initializer": {"config": {}, "class_name": "Ones"}, "beta_initializer": {"config": {}, "class_name": "Zeros"}, "epsilon": 1.1e-05, "axis": -1, "trainable": true, "moving_mean_initializer": {"config": {}, "class_name": "Zeros"}, "center": true, "name": "batch_normalization_7", "scale": true, "gamma_initializer": {"config": {}, "class_name": "Ones"}}, "class_name": "BatchNormalization", "name": "batch_normalization_7"}, {"inbound_nodes": [[["batch_normalization_7", 0, 0, {}]]], "config": {"trainable": true, "activation": "relu", "name": "activation_7"}, "class_name": "Activation", "name": "activation_7"}, {"inbound_nodes": [[["activation_7", 0, 0, {}]]], "config": {"kernel_regularizer": null, "padding": "same", "dilation_rate": [1, 1], "filters": 12, "bias_regularizer": null, "kernel_size": [3, 3], "kernel_constraint": null, "use_bias": false, "trainable": true, "strides": [1, 1], "bias_constraint": null, "bias_initializer": {"config": {}, "class_name": "Zeros"}, "name": "conv2d_8", "activity_regularizer": null, "activation": "linear", "kernel_initializer": {"config": {"distribution": "normal", "mode": "fan_in", "scale": 2.0, "seed": null}, "class_name": "VarianceScaling"}, "data_format": "channels_last"}, "class_name": "Conv2D", "name": "conv2d_8"}, {"inbound_nodes": [[["concatenate_5", 0, 0, {}], ["conv2d_8", 0, 0, {}]]], "config": {"axis": -1, "trainable": true, "name": "concatenate_6"}, "class_name": "Concatenate", "name": "concatenate_6"}, {"inbound_nodes": [[["concatenate_6", 0, 0, {}]]], "config": {"momentum": 0.99, "beta_regularizer": null, "gamma_regularizer": null, "beta_constraint": null, "gamma_constraint": null, "moving_variance_initializer": {"config": {}, "class_name": "Ones"}, "beta_initializer": {"config": {}, "class_name": "Zeros"}, "epsilon": 1.1e-05, "axis": -1, "trainable": true, "moving_mean_initializer": {"config": {}, "class_name": "Zeros"}, "center": true, "name": "batch_normalization_8", "scale": true, "gamma_initializer": {"config": {}, "class_name": "Ones"}}, "class_name": "BatchNormalization", "name": "batch_normalization_8"}, {"inbound_nodes": [[["batch_normalization_8", 0, 0, {}]]], "config": {"trainable": true, "activation": "relu", "name": "activation_8"}, "class_name": "Activation", "name": "activation_8"}, {"inbound_nodes": [[["activation_8", 0, 0, {}]]], "config": {"kernel_regularizer": {"config": {"l2": 9.999999747378752e-05, "l1": 0.0}, "class_name": "L1L2"}, "padding": "same", "dilation_rate": [1, 1], "filters": 96, "bias_regularizer": null, "kernel_size": [1, 1], "kernel_constraint": null, "use_bias": false, "trainable": true, "strides": [1, 1], "bias_constraint": null, "bias_initializer": {"config": {}, "class_name": "Zeros"}, "name": "conv2d_9", "activity_regularizer": null, "activation": "linear", "kernel_initializer": {"config": {"distribution": "normal", "mode": "fan_in", "scale": 2.0, "seed": null}, "class_name": "VarianceScaling"}, "data_format": "channels_last"}, "class_name": "Conv2D", "name": "conv2d_9"}, {"inbound_nodes": [[["conv2d_9", 0, 0, {}]]], "config": {"pool_size": [2, 2], "padding": "valid", "trainable": true, "strides": [2, 2], "data_format": "channels_last", "name": "average_pooling2d_2"}, "class_name": "AveragePooling2D", "name": "average_pooling2d_2"}, {"inbound_nodes": [[["average_pooling2d_2", 0, 0, {}]]], "config": {"momentum": 0.99, "beta_regularizer": null, "gamma_regularizer": null, "beta_constraint": null, "gamma_constraint": null, "moving_variance_initializer": {"config": {}, "class_name": "Ones"}, "beta_initializer": {"config": {}, "class_name": "Zeros"}, "epsilon": 1.1e-05, "axis": -1, "trainable": true, "moving_mean_initializer": {"config": {}, "class_name": "Zeros"}, "center": true, "name": "batch_normalization_9", "scale": true, "gamma_initializer": {"config": {}, "class_name": "Ones"}}, "class_name": "BatchNormalization", "name": "batch_normalization_9"}, {"inbound_nodes": [[["batch_normalization_9", 0, 0, {}]]], "config": {"trainable": true, "activation": "relu", "name": "activation_9"}, "class_name": "Activation", "name": "activation_9"}, {"inbound_nodes": [[["activation_9", 0, 0, {}]]], "config": {"kernel_regularizer": null, "padding": "same", "dilation_rate": [1, 1], "filters": 12, "bias_regularizer": null, "kernel_size": [3, 3], "kernel_constraint": null, "use_bias": false, "trainable": true, "strides": [1, 1], "bias_constraint": null, "bias_initializer": {"config": {}, "class_name": "Zeros"}, "name": "conv2d_10", "activity_regularizer": null, "activation": "linear", "kernel_initializer": {"config": {"distribution": "normal", "mode": "fan_in", "scale": 2.0, "seed": null}, "class_name": "VarianceScaling"}, "data_format": "channels_last"}, "class_name": "Conv2D", "name": "conv2d_10"}, {"inbound_nodes": [[["average_pooling2d_2", 0, 0, {}], ["conv2d_10", 0, 0, {}]]], "config": {"axis": -1, "trainable": true, "name": "concatenate_7"}, "class_name": "Concatenate", "name": "concatenate_7"}, {"inbound_nodes": [[["concatenate_7", 0, 0, {}]]], "config": {"momentum": 0.99, "beta_regularizer": null, "gamma_regularizer": null, "beta_constraint": null, "gamma_constraint": null, "moving_variance_initializer": {"config": {}, "class_name": "Ones"}, "beta_initializer": {"config": {}, "class_name": "Zeros"}, "epsilon": 1.1e-05, "axis": -1, "trainable": true, "moving_mean_initializer": {"config": {}, "class_name": "Zeros"}, "center": true, "name": "batch_normalization_10", "scale": true, "gamma_initializer": {"config": {}, "class_name": "Ones"}}, "class_name": "BatchNormalization", "name": "batch_normalization_10"}, {"inbound_nodes": [[["batch_normalization_10", 0, 0, {}]]], "config": {"trainable": true, "activation": "relu", "name": "activation_10"}, "class_name": "Activation", "name": "activation_10"}, {"inbound_nodes": [[["activation_10", 0, 0, {}]]], "config": {"kernel_regularizer": null, "padding": "same", "dilation_rate": [1, 1], "filters": 12, "bias_regularizer": null, "kernel_size": [3, 3], "kernel_constraint": null, "use_bias": false, "trainable": true, "strides": [1, 1], "bias_constraint": null, "bias_initializer": {"config": {}, "class_name": "Zeros"}, "name": "conv2d_11", "activity_regularizer": null, "activation": "linear", "kernel_initializer": {"config": {"distribution": "normal", "mode": "fan_in", "scale": 2.0, "seed": null}, "class_name": "VarianceScaling"}, "data_format": "channels_last"}, "class_name": "Conv2D", "name": "conv2d_11"}, {"inbound_nodes": [[["concatenate_7", 0, 0, {}], ["conv2d_11", 0, 0, {}]]], "config": {"axis": -1, "trainable": true, "name": "concatenate_8"}, "class_name": "Concatenate", "name": "concatenate_8"}, {"inbound_nodes": [[["concatenate_8", 0, 0, {}]]], "config": {"momentum": 0.99, "beta_regularizer": null, "gamma_regularizer": null, "beta_constraint": null, "gamma_constraint": null, "moving_variance_initializer": {"config": {}, "class_name": "Ones"}, "beta_initializer": {"config": {}, "class_name": "Zeros"}, "epsilon": 1.1e-05, "axis": -1, "trainable": true, "moving_mean_initializer": {"config": {}, "class_name": "Zeros"}, "center": true, "name": "batch_normalization_11", "scale": true, "gamma_initializer": {"config": {}, "class_name": "Ones"}}, "class_name": "BatchNormalization", "name": "batch_normalization_11"}, {"inbound_nodes": [[["batch_normalization_11", 0, 0, {}]]], "config": {"trainable": true, "activation": "relu", "name": "activation_11"}, "class_name": "Activation", "name": "activation_11"}, {"inbound_nodes": [[["activation_11", 0, 0, {}]]], "config": {"kernel_regularizer": null, "padding": "same", "dilation_rate": [1, 1], "filters": 12, "bias_regularizer": null, "kernel_size": [3, 3], "kernel_constraint": null, "use_bias": false, "trainable": true, "strides": [1, 1], "bias_constraint": null, "bias_initializer": {"config": {}, "class_name": "Zeros"}, "name": "conv2d_12", "activity_regularizer": null, "activation": "linear", "kernel_initializer": {"config": {"distribution": "normal", "mode": "fan_in", "scale": 2.0, "seed": null}, "class_name": "VarianceScaling"}, "data_format": "channels_last"}, "class_name": "Conv2D", "name": "conv2d_12"}, {"inbound_nodes": [[["concatenate_8", 0, 0, {}], ["conv2d_12", 0, 0, {}]]], "config": {"axis": -1, "trainable": true, "name": "concatenate_9"}, "class_name": "Concatenate", "name": "concatenate_9"}, {"inbound_nodes": [[["concatenate_9", 0, 0, {}]]], "config": {"momentum": 0.99, "beta_regularizer": null, "gamma_regularizer": null, "beta_constraint": null, "gamma_constraint": null, "moving_variance_initializer": {"config": {}, "class_name": "Ones"}, "beta_initializer": {"config": {}, "class_name": "Zeros"}, "epsilon": 1.1e-05, "axis": -1, "trainable": true, "moving_mean_initializer": {"config": {}, "class_name": "Zeros"}, "center": true, "name": "batch_normalization_12", "scale": true, "gamma_initializer": {"config": {}, "class_name": "Ones"}}, "class_name": "BatchNormalization", "name": "batch_normalization_12"}, {"inbound_nodes": [[["batch_normalization_12", 0, 0, {}]]], "config": {"trainable": true, "activation": "relu", "name": "activation_12"}, "class_name": "Activation", "name": "activation_12"}, {"inbound_nodes": [[["activation_12", 0, 0, {}]]], "config": {"data_format": "channels_last", "trainable": true, "name": "global_average_pooling2d_1"}, "class_name": "GlobalAveragePooling2D", "name": "global_average_pooling2d_1"}], "name": "densenet"}, "class_name": "Model", "name": "densenet"}, {"inbound_nodes": [[["densenet", 1, 0, {}]]], "config": {"kernel_regularizer": null, "bias_initializer": {"config": {}, "class_name": "Zeros"}, "units": 128, "name": "dense_1", "kernel_constraint": null, "use_bias": true, "trainable": true, "bias_constraint": null, "bias_regularizer": null, "activity_regularizer": null, "activation": "relu", "kernel_initializer": {"config": {"distribution": "uniform", "mode": "fan_avg", "scale": 1.0, "seed": null}, "class_name": "VarianceScaling"}}, "class_name": "Dense", "name": "dense_1"}, {"inbound_nodes": [[["dense_1", 0, 0, {}]]], "config": {"rate": 0.2, "trainable": true, "name": "dropout_1"}, "class_name": "Dropout", "name": "dropout_1"}, {"inbound_nodes": [[["dropout_1", 0, 0, {}]]], "config": {"kernel_regularizer": null, "bias_initializer": {"config": {}, "class_name": "Zeros"}, "units": 32, "name": "feat_a", "kernel_constraint": null, "use_bias": true, "trainable": true, "bias_constraint": null, "bias_regularizer": null, "activity_regularizer": null, "activation": "relu", "kernel_initializer": {"config": {"distribution": "uniform", "mode": "fan_avg", "scale": 1.0, "seed": null}, "class_name": "VarianceScaling"}}, "class_name": "Dense", "name": "feat_a"}, {"inbound_nodes": [[["feat_a", 0, 0, {}]]], "config": {"kernel_regularizer": null, "bias_initializer": {"config": {}, "class_name": "Zeros"}, "units": 1, "name": "pred_a", "kernel_constraint": null, "use_bias": true, "trainable": true, "bias_constraint": null, "bias_regularizer": null, "activity_regularizer": null, "activation": "linear", "kernel_initializer": {"config": {"distribution": "uniform", "mode": "fan_avg", "scale": 1.0, "seed": null}, "class_name": "VarianceScaling"}}, "class_name": "Dense", "name": "pred_a"}], "name": "model_1"}, "class_name": "Model"}